lstm数据增强的模型文件/采用32全增强结果094.pth (torch, 202598 bytes, 6 tensors)

lstm.weight_ih_l0 f4 [256, 128]
0.0447436 0.097859316 -0.058032814 0.06322625 -0.007809048 0.05933545 -0.023544447 0.09649874
0.114257075 -0.097795576 0.11929912 0.06223736 0.1268328 0.04557839 0.07341735 0.0018525621
0.13562033 0.08665232 0.022594623 0.09959772 0.009419855 0.08390074 0.036805 0.16798481
-0.032406937 0.012947292 0.031154597 -0.033857923 0.06858797 -0.08937309 0.1489348 -0.08906449
0.0990582 0.032880936 -0.019162206 0.09739806 0.04560231 0.17718795 0.15591276 0.09126694
0.054545376 -0.023727803 -0.013234992 0.02786979 0.030633725 -0.13066576 0.0301903 -0.01373458
0.04145774 -0.100916445 -0.18180746 -0.13458505 -0.1879149 0.042652946 -0.015058091 -0.011132815
-0.03700923 -0.0771497 0.022073744 -0.15137066 -0.01969047 -0.104706556 0.0028552625 -0.07520241
0.032926142 -0.04437607 0.07843609 -0.107262865 -0.113260016 -0.107648835 0.07512661 -0.005700354
0.06951511 -0.16546798 -0.19289084 -0.17355451 -0.1283299 0.002045423 0.017844722 0.04954722
0.011339638 -0.0066506304 0.110860795 -0.09680992 0.0053085918 -0.12764364 0.004646903 -0.17072825
-0.19313964 -0.012096753 -0.029764265 -0.08557789 -0.00753322 -0.04675347 -0.25609252 -0.22108392
-0.0065492955 -0.17544499 -0.21008828 -0.30753088 -0.24353431 -0.12582766 -0.16700642 -0.21900614
-0.122111954 -0.21627176 -0.23661275 -0.18241456 -0.22776626 -0.21579698 0.005388686 -0.12053861
-0.11500834 -0.2371574 -0.23545618 -0.17638913 -0.15595317 -0.28072053 -0.22014302 -0.21437076
-0.16200121 -0.17884624 -0.1545266 -0.03689914 -0.054002464 -0.16340378 -0.119266085 -0.23372239
0.16363901 0.036498778 0.14870486 0.08175314 -0.09367689 0.11474458 0.005403982 -0.03082339
-0.083203636 -0.108239464 0.04832007 0.0033039835 0.08405832 -0.07451682 0.11152485 -0.064238906
0.013681962 0.0335307 0.0720496 0.109365806 0.13098605 -0.101621546 0.017237162 -0.062298946
-0.0033407395 -0.08709533 0.12401173 -0.060291093 0.09672853 0.07246726 0.08397365 -0.029367607
0.14975643 0.08198155 0.062501535 -0.07922985 0.095367886 0.023467496 -0.034977816 0.1421956
0.05378353 -0.052228767 -0.009008722 0.05450918 0.115747094 0.012476869 -0.040073674 -0.034600604
-0.082950145 0.07368608 0.10954501 -0.1093827 0.039376546 0.07904192 0.05958569 0.0052314205
0.096162 0.08806809 0.07566862 0.002389533 -0.03813595 0.0037971241 -0.01843478 -0.031240802
0.06769884 0.07790596 -0.0180245 -0.025444135 0.0042891093 -0.012668925 0.055148523 0.05197025
-0.07693132 -0.02062499 0.13921997 0.09284808 0.048279945 -0.037619967 -0.038090702 -0.07807451
-0.023055455 0.056318603 0.11659512 0.07217667 -0.08180725 -0.013573648 0.046839964 0.1650476
0.05888266 -0.034291055 0.048713166 -0.03465265 -0.07294425 0.09973717 -0.045969088 -0.023870636
-0.104276806 0.12368043 0.1447114 0.073691465 -0.056947555 -0.092549495 -0.09485386 0.086420625
0.05881579 0.106337555 0.05887733 0.015403455 -0.022026025 -0.09886401 -0.10198973 -0.11642275
0.06427082 -0.035514668 -0.0106901545 -0.024701623 0.0030650853 -0.05620976 -0.033492297 0.08715649
-0.019047985 0.114735596 -0.009298114 -0.09784364 -0.014245319 -0.02968287 -0.03190573 -0.098898575
00000000: 1145 373d 776a c83d d1b3 6dbd c47c 813d
00000010: 0be3 ffbb bb09 733d 49e0 c0bc 22a1 c53d
00000020: 9dff e93d 0c49 c8bd 1953 f43d 9aec 7e3d
00000030: 75e0 013e 68b0 3a3d d65b 963d abd1 f23a
00000040: 0ee0 0a3e c676 b13d 5c18 b93c e4f9 cb3d
00000050: bc55 1a3c 27d4 ab3d d7c0 163d 3604 2c3e
00000060: 23bd 04bd e120 543c ed37 ff3c 9bae 0abd
00000070: da77 8c3d 3d09 b7bd 5d82 183e 7167 b6bd
00000080: 07df ca3d 29ae 063d 0ffa 9cbc a278 c73d
00000090: 7dc9 3a3d c270 353e 98a7 1f3e 29ea ba3d
000000a0: f96a 5f3d cf60 c2bc 94d7 58bc 304f e43c
000000b0: 94f3 fa3c 3fcd 05be a651 f73c 0107 61bc
000000c0: 97cf 293d 48ad cebd bc2b 3abe aad0 09be
000000d0: c36c 40be dbb4 2e3d 36b6 76bc 6966 36bc
000000e0: fe96 17bd a900 9ebd ffd3 b43c e900 1bbe
000000f0: e94d a1bc 6470 d6bd 5b1f 3b3b b903 9abd
00000100: 90dd 063d afc3 35bd 1aa3 a03d a2ac dbbd
00000110: def4 e7bd fe76 dcbd fbdb 993d 09ca babb
00000120: f05d 8e3d 7070 29be 2d85 45be 46b8 31be
00000130: ea68 03be 810c 063b 182f 923c 07f2 4a3d
00000140: e4c9 393c 88ed d9bb fc0a e33d 4844 c6bd
00000150: b2f3 ad3b 04b5 02be 0c45 983b 63d3 2ebe
00000160: 66c6 45be 7631 46bc 30d4 f3bc 7643 afbd
00000170: 3bd9 f6bb 9180 3fbd 8f1e 83be d363 62be
00000180: 799b d6bb daa7 33be 6221 57be b074 9dbe
00000190: 0f61 79be f7d8 00be bb03 2bbe 2543 60be
000001a0: d515 fabd 5876 5dbe 9d4a 72be e2ca 3abe
000001b0: 8f3b 69be e2f9 5cbe 9393 b03b f2dc f6bd
000001c0: 7e89 ebbd 64d9 72be 6d1b 71be 5a9f 34be
000001d0: 30b2 1fbe 9aba 8fbe 2c6d 61be 0284 5bbe
000001e0: a5e3 25be 7823 37be 393c 1ebe 8d23 17bd
000001f0: b031 5dbd 5253 27be c741 f4bd ec54 6fbe
00000200: fc90 273e be7f 153d 1646 183e 316e a73d
00000210: abd9 bfbd 35ff ea3d e313 b13b 5681 fcbc
00000220: ab66 aabd a7ac ddbd 44eb 453d a587 583b
00000230: c526 ac3d 469c 98bd 2467 e43d b08f 83bd
00000240: 4f2a 603c 7d57 093d be8e 933d 2efb df3d
00000250: 3521 063e f51e d0bd f334 8d3c 2e2d 7fbd
00000260: 4ff0 5abb 095f b2bd ddf9 fd3d cbf3 76bd
00000270: 9c19 c63d b769 943d 61fa ab3d 5694 f0bc
00000280: c059 193e f1e5 a73d ce00 803d 4243 a2bd
00000290: 3d50 c33d e83e c03c e644 0fbd b99b 113e
000002a0: 1e4c 5c3d d5ed 55bd 5299 13bc 0545 5f3d
000002b0: d00c ed3d c86b 4c3c 4b24 24bd 5db9 0dbd
000002c0: c4e1 a9bd bae8 963d 2259 e03d 0904 e0bd
000002d0: 4d49 213d bbe0 a13d 2010 743d 566c ab3b
000002e0: 95f0 c43d 0b5d b43d 26f8 9a3d b699 1c3b
000002f0: 7134 1cbd 2cd9 783b 8904 97bc b6ec ffbc
00000300: b0a5 8a3d 298d 9f3d 1ea8 93bc 3870 d0bc
00000310: a88b 8c3b 5391 4fbc 6be3 613d c2de 543d
00000320: 2b8e 9dbd bdf5 a8bc ae8f 0e3e 2227 be3d
00000330: 31c1 453d 6517 1abd ff04 1cbd 87e5 9fbd
00000340: cbde bcbc 56ae 663d 6cc9 ee3d 5dd1 933d
00000350: 8f8a a7bd 0264 5ebc 43db 3f3d 3d02 293e
00000360: f22e 713d c774 0cbd 7587 473d f0ef 0dbd
00000370: cc63 95bd 0043 cc3d 154a 3cbd 5a8c c3bc
00000380: 148f d5bd 2a4c fd3d 3a2f 143e 8deb 963d
00000390: d741 69bd 978a bdbd be42 c2bd 4cfd b03d
000003a0: d3e8 703d 81c7 d93d 5b29 713d c65e 7c3c
000003b0: ec6f b4bc 3779 cabd fedf d0bd 0d6f eebd
000003c0: 6ba0 833d d477 11bd c225 2fbc 0f5b cabc
000003d0: 99df 483b 353c 66bd 382f 09bd 1a7f b23d
000003e0: 850a 9cbc 7ffa ea3d 1e57 18bc 3f62 c8bd
000003f0: 3365 69bc 7d29 f3bc 95af 02bd 568b cabd

lstm.weight_hh_l0 f4 [256, 64]
0.0234427 -0.12269411 0.11900909 0.19769777 0.013905024 0.2876822 -0.098495826 0.017811175
-0.26165676 -0.09727672 0.11431786 0.21160966 0.090342976 -0.06802746 -0.015946444 -0.31347018
-0.017012116 0.18158256 -0.14879398 0.092710756 0.27394158 -0.16922215 -0.11579591 -0.24340202
0.23390764 -0.24887413 0.037497364 -0.16532652 -0.016393524 0.039901484 0.046467554 0.18845165
-0.06037571 0.017188562 -0.024471065 0.13699977 -0.20025223 -0.15807898 -0.13370909 -0.1655284
-0.10715584 0.06879826 0.06231666 -0.16434236 -0.03954612 -0.09616941 -0.04561033 -0.27612507
-0.23468168 -0.23310776 0.22629854 -0.0015153701 -0.024817377 -0.3659673 0.30307096 -0.12852477
0.20039837 0.18067886 0.06697052 0.047043417 -0.33664465 -0.08124764 -0.2804577 0.1785183
0.019802073 0.13975635 0.03152192 0.08160243 0.02187007 0.026159901 -0.03900136 0.041599922
-0.050254695 -0.08413962 0.118072085 0.07845023 0.030523447 -0.0776996 0.11224095 0.11836811
-0.008705362 -0.0828353 0.11288652 -0.13175867 0.109576106 -0.0016977625 0.019421704 -0.0062595643
-0.0071405163 0.038583502 0.056666628 -0.03762469 -0.026427297 -0.06408263 -0.13688596 -0.11340127
0.009403861 -0.12642893 0.010837048 -0.10706453 0.17689244 0.035572093 -0.06915359 -0.010185167
-0.1789512 0.08069887 0.00069481356 0.13848478 0.01916125 -0.02342018 0.079072185 0.05394037
-0.11659835 -0.08591381 -0.075456046 0.1572727 -0.047864683 0.11833563 -0.12610859 0.01444054
0.07700791 0.09177439 -0.14795394 -0.01018772 0.011614237 -0.0012713898 -0.055834785 0.13355048
-0.067707375 -0.0155512085 -0.017740875 0.12135609 0.07779296 -0.00846607 -0.011041845 -0.07593036
0.030518794 0.02756147 0.14014217 0.21609528 -0.029032845 0.12386676 -0.1091043 0.019941863
0.04771422 0.102383226 0.07049632 -0.042217627 0.12037315 -0.0033211985 -0.021590155 -0.07833863
-0.10932589 -0.06137077 0.05632162 0.011981743 -0.02446194 0.0035839148 0.003756364 -0.061196428
-0.029291261 -0.099760994 0.0108708255 0.1501983 -0.09187372 0.01860267 -0.04742061 -0.085257135
0.08052722 -0.1129811 0.09932151 0.045981266 0.050015163 0.020739594 -0.09624068 -0.15398587
0.06418926 0.035639383 0.080553874 -0.0612012 0.0067508556 -0.14004323 0.088728584 0.090078525
-0.09482503 -0.08516047 -0.117256805 -0.023444384 0.03945678 -0.1236879 0.1506216 -0.017364565
-0.091265075 -0.0060520433 -0.08218063 -0.02527912 -0.09933464 -0.10396626 -0.04975818 -0.0088339085
0.07988288 -0.04397947 -0.0026364217 0.098719195 -0.01886806 -0.016869977 0.033858128 -0.06316452
0.008896157 -0.1329957 -0.005683866 -0.18791424 0.108611025 -0.0965367 0.07669289 0.0045447582
-0.22253944 -0.030971523 0.05053323 0.14008975 0.11804148 -0.18357886 0.02050499 -0.0062711644
0.085913345 -0.05826293 0.021347253 0.10789317 0.15047032 -0.083436295 0.1207291 0.1332554
-0.11842538 -0.029662713 0.07168953 -0.0342543 -0.024846964 0.17615181 -0.028383236 -0.0047308356
-0.0631686 0.09344184 0.008083147 0.07601856 0.03257363 0.005709311 0.035663337 0.06352819
-0.14470105 0.07228382 -0.04151577 0.023043973 -0.056664832 -0.027902842 0.08864675 0.045268856
00000000: e80a c03c 0d47 fbbd 0abb f33d 4971 4a3e
00000010: e6d1 633c 154b 933e 2eb8 c9bd bee8 913c
00000020: e0f7 85be 0439 c7bd 7b1f ea3d 34b0 583e
00000030: bd05 b93d fb51 8bbd 1ea2 82bc 2a7f a0be
00000040: fe5c 8bbc c7f0 393e 735d 18be 23df bd3d
00000050: 1242 8c3e 9248 2dbe 6826 edbd 613e 79be
00000060: 7c85 6f3e dcd8 7ebe d696 193d 5b4b 29be
00000070: b64b 86bc bd6f 233d c354 3e3d 78f9 403e
00000080: 854c 77bd 07cf 8c3c 8b77 c8bc ab49 0c3e
00000090: ec0e 4dbe 75df 21be 09eb 08be 4780 29be
000000a0: 8574 dbbd 1ae6 8c3d c13f 7f3d 5d49 28be
000000b0: 1dfb 21bd 78f4 c4bd e6d1 3abd 4460 8dbe
000000c0: 6550 70be cdb3 6ebe ceba 673e 629f c6ba
000000d0: d04d cbbc 1160 bbbe 1e2c 9b3e ff9b 03be
000000e0: 3b35 4d3e e103 393e d727 893d 99b0 403d
000000f0: b05c acbe 2a65 a6bd 2798 8fbe 80cd 363e
00000100: f537 a23c 4a1c 0f3e 211d 013d 2d1f a73d
00000110: dc28 b33c 4a4d d63c e4bf 1fbd ae64 2a3d
00000120: ded7 4dbd 6551 acbd c7cf f13d 84aa a03d
00000130: 4f0c fa3c f820 9fbd 95de e53d fb6a f23d
00000140: efa0 0ebc 8ea5 a9bd 0c31 e73d bfeb 06be
00000150: 7069 e03d 7587 deba 441a 9f3c 081d cdbb
00000160: fefa e9bb bc09 1e3d 441b 683d 591c 1abd
00000170: 0f7e d8bc c13d 83bd d52b 0cbe ed3e e8bd
00000180: a712 1a3c 9676 01be e08d 313c a644 dbbd
00000190: 4b23 353e 0bb4 113d 66a0 8dbd b0df 26bc
000001a0: fc3e 37be 7345 a53d 2624 363a f4ce 0d3e
000001b0: 0ef8 9c3c addb bfbc 99f0 a13d 94f0 5c3d
000001c0: 1ecb eebd 94f3 afbd b388 9abd 180c 213e
000001d0: c20d 44bd f359 f23d 9c22 01be 0498 6c3c
000001e0: 53b6 9d3d 36f4 bb3d 3d81 17be 65ea 26bc
000001f0: a449 3e3c c3a4 a6ba 04b3 64bd 75c1 083e
00000200: 2aaa 8abd 7fca 7ebc 5055 91bc 8b89 f83d
00000210: ea51 9f3d 45b5 0abc dbe8 34bc 6081 9bbd
00000220: 8d02 fa3c 98c8 e13c 6e81 0f3e 1548 5d3e
00000230: 4ad6 edbc dbad fd3d 1372 dfbd 1e5d a33c
00000240: fc6f 433d 4cae d13d 6060 903d 64ec 2cbd
00000250: 3386 f63d 77a8 59bb d6dd b0bc 0170 a0bd
00000260: 41e6 dfbd eb5f 7bbd 80b1 663d 134f 443c
00000270: 6864 c8bc 1de0 6a3b 552d 763b 1ba9 7abd
00000280: 3af4 efbc 7e4f ccbd 8c1b 323c 95cd 193e
00000290: 4a28 bcbd a064 983c 1d3c 42bd 4b9b aebd
000002a0: 75eb a43d a362 e7bd 1369 cb3d da56 3c3d
000002b0: b3dc 4c3d 15e6 a93c d519 c5bd 79ae 1dbe
000002c0: a975 833d 9afa 113d 6ef9 a43d 1cae 7abd
000002d0: 4836 dd3b 7e67 0fbe 55b7 b53d 177b b83d
000002e0: a033 c2bd 9d68 aebd 5624 f0bd 700e c0bc
000002f0: 6f9d 213d 1550 fdbd 8c3c 1a3e 2240 8ebc
00000300: 2fe9 babd 3850 c6bb 514e a8bd 2816 cfbc
00000310: f66f cbbd 43ec d4bd 3ccf 4bbd 19bc 10bc
00000320: a399 a33d d123 34bd d1c7 2cbb 4a2d ca3d
00000330: 3191 9abc e832 8abc d2ae 0a3d 665c 81bd
00000340: 30c1 113c 0630 08be b93f babb 976c 40be
00000350: 756f de3d 09b5 c5bd 2911 9d3d 32ec 943b
00000360: 61e1 63be feb7 fdbc effb 4e3d b073 0f3e
00000370: bbbf f13d 19fc 3bbe 15fa a73c 577e cdbb
00000380: 56f3 af3d 1ca5 6ebd 6fe0 ae3c 18f7 dc3d
00000390: e414 1a3e a6e0 aabd d240 f73d 1b74 083e
000003a0: 0189 f2bd 38ff f2bc f6d1 923d 3d4e 0cbd
000003b0: dc8b cbbc 2461 343e f683 e8bc 2005 9bbb
000003c0: 8a5e 81bd 6f5e bf3d 2d6f 043c 9eaf 9b3d
000003d0: ed6b 053d 2c15 bb3b b813 123d 111b 823d
000003e0: 832c 14be 8a09 943d 710c 2abd b7c6 bc3c
000003f0: 6219 68bd 8094 e4bc 6d8c b53d d66b 393d

lstm.bias_ih_l0 f4 [256]
-0.060225632 0.056474406 0.019391758 0.090419054 0.10706716 0.16718085 -0.030612824 0.09489414
-0.12245308 0.052300747 -0.076948136 -0.014558213 0.029752875 0.04636416 0.024612397 0.09397611
0.059564825 0.038112298 0.050539847 0.010887681 0.008104892 -0.09859418 0.08869029 -0.023097754
0.013697845 -0.087006986 0.094637096 0.06931595 0.11544135 -0.033516467 -0.08537451 0.006852948
0.040321067 0.014559728 -0.0410131 -0.0066218916 0.13630196 0.16932218 0.00799983 -0.04317879
0.034746032 -0.002061026 0.14605014 0.044809006 0.086383976 0.1344298 0.089808054 0.120780475
0.059609555 0.11155994 0.19707431 0.070022374 0.009213046 -0.026976896 0.184541 -0.07277409
-0.06497967 0.09425178 -0.023787292 0.07163077 0.08198809 -0.03911117 0.13636407 0.031617485
-0.06596265 0.05113136 -0.04895836 0.006545113 -0.04416471 -0.060537696 -0.106552035 0.05105741
-0.105182074 -0.053144075 0.09551456 0.14331812 0.10909143 0.017518451 0.093010746 -0.010659848
-0.010204294 0.03339262 0.03584967 0.13147311 0.057145026 0.092482224 0.06458002 -0.1104507
0.11656283 0.117335744 0.069075465 0.15769956 -0.063661136 -0.009161043 0.13513218 -0.009861131
0.057627685 0.07270915 0.0834878 0.019782353 0.099077456 0.024258554 -0.04070487 -0.09002928
0.16572908 -0.030645221 0.070848554 -0.00054115395 0.12000839 0.088924356 -0.03488586 0.097816505
-0.0789685 -0.055912912 0.12944335 0.0026976832 0.00042290534 0.10449928 0.054286994 0.06732962
0.023672037 0.021364393 0.061803136 0.02839946 -0.057297934 -0.048378613 -0.017742734 -0.06029863
0.035577387 0.0077945446 -0.12707987 -0.1418376 -0.010522074 -0.14629701 -0.09252275 0.053962216
0.00823919 0.010194903 -0.179494 0.036339313 -0.035215512 0.08528796 0.039964825 0.0590135
0.13994855 -0.1598286 0.116109245 -0.16058771 -0.083067134 -0.015356753 0.08644361 0.07085354
-0.100035265 0.15622644 -0.00051201036 0.10204481 -0.01885688 0.015155912 -0.13782825 -0.113339804
0.066042595 -0.034497287 0.15723191 -0.10596393 0.18674172 0.18127143 0.12016069 0.15890807
-0.033775225 -0.068096854 0.051270112 0.040217813 -0.112063326 0.17476764 0.11011815 0.20279928
0.093724914 0.09950012 -0.073314555 0.07837491 -0.0970289 -0.048346914 -0.037172012 0.011217636
-0.16427256 -0.11405546 -0.13706978 0.017466307 0.032721493 0.11628104 0.012341108 -0.011847569
0.17135818 0.09173446 -0.0044692648 0.10977674 0.10662731 0.13901183 0.04955448 0.05214646
-0.054752328 0.059800673 0.15927947 0.22473493 -0.07737593 0.13405785 0.15839623 0.0028370381
-0.016364913 0.12186945 0.10082912 0.15108682 -0.015956204 -0.102878995 0.08005212 0.050080094
0.17954156 0.12209969 -0.01402526 -0.038789067 0.08742342 -0.024148908 0.098016694 0.12884761
-0.019439649 0.0062949965 0.15644129 0.06375134 0.10699907 0.14959437 0.10492372 0.16756238
0.06407993 0.13281249 0.102414116 0.052062873 -0.0602139 0.120955124 0.098280534 0.05191934
0.06798185 -0.01510193 0.1732991 0.04620662 -0.013648113 0.0400829 0.11699256 0.13215008
0.11054555 -0.0057484554 0.13036062 0.09417008 0.16769983 -1.6045735e-05 0.063073635 0.08353892
00000000: 27af 76bd b551 673d 77db 9e3c a02d b93d
00000010: 0746 db3d 7531 2b3e bfc7 fabc dc57 c23d
00000020: aec8 fabd 4f39 563d fc96 9dbd 9285 6ebc
00000030: 4dbc f33c 58e8 3d3d f09f c93c 8c76 c03d
00000040: 3ffa 733d a41b 1c3d df02 4f3d 3e62 323c
00000050: 62ca 043c bfeb c9bd 41a3 b53d 8037 bdbc
00000060: ed6c 603c b830 b2bd 18d1 c13d 85f5 8d3d
00000070: 846c ec3d 9048 09bd d5d8 aebd b28e e03b
00000080: b427 253d ed8b 6e3c 5afd 27bd 74fc d8bb
00000090: be92 0b3e cb62 2d3e b811 033c 3edc 30bd
000000a0: db51 0e3d 4712 07bb 2b8e 153e a689 373d
000000b0: 15ea b03d f7a7 093e 49ed b73d c15b f73d
000000c0: 2629 743d 8a79 e43d d9cd 493e e467 8f3d
000000d0: 51f2 163c a7fe dcbc 51f8 3c3e 950a 95bd
000000e0: 1014 85bd 1407 c13d 91dd c2bc 27b3 923d
000000f0: 5fe9 a73d 0933 20bd 06a3 0b3e 5681 013d
00000100: 6d17 87bd 1e6f 513d 9088 48bd 6378 d63b
00000110: 0ee6 34bd 60f6 77bd f437 dabd 9321 513d
00000120: b369 d7bd 9aad 59bd 239d c33d fcc1 123e
00000130: 546b df3d db82 8f3c 6b7c be3d a5a6 2ebc
00000140: e92f 27bc b3c6 083d 1bd7 123d e3a0 063e
00000150: e710 6a3d 5267 bd3d 8842 843d fa33 e2bd
00000160: 7eb8 ee3d b94d f03d 7077 8d3d fe7b 213e
00000170: c560 82bd 3318 16bc 1760 0a3e 9590 21bc
00000180: 020b 6c3d 89e8 943d a7fb aa3d 9a0e a23c
00000190: 1fe9 ca3d e0b9 c63c 26ba 26bd 4561 b8bd
000001a0: e2b4 293e b00b fbbc 0c19 913d 3adc 0dba
000001b0: f5c6 f53d f91d b63d 7ae4 0ebd 0554 c83d
000001c0: 3dba a1bd f004 65bd cc8c 043e 9dcb 303b
000001d0: 65b9 dd39 b803 d63d 0a5c 5e3d 1de4 893d
000001e0: dceb c13c 6104 af3c 4925 7d3d fca5 e83c
000001f0: 3db1 6abd a728 46bd 3659 91bc b2fb 76bd
00000200: 98b9 113d 6169 ff3b 3a21 02be e03d 11be
00000210: c764 2cbc e2ce 15be 917c bdbd 7c07 5d3d
00000220: abfd 063c 8608 273c 46cd 37be 88d8 143d
00000230: 243e 10bd 74ab ae3d 28b2 233d 24b8 713d
00000240: ac4e 0f3e 1caa 23be afca ed3d 1b71 24be
00000250: 1a1f aabd e49a 7bbc 5909 b13d a91b 913d
00000260: 4adf ccbd d3f9 1f3e 6f38 06ba dffc d03d
00000270: be79 9abc 8150 783c d922 0dbe b31e e8bd
00000280: 5741 873d 074d 0dbd 6701 213e 9e03 d9bd
00000290: 3939 3f3e 389f 393e cf16 f63d ccb8 223e
000002a0: e457 0abd 5d76 8bbd 9c00 523d 6fbb 243d
000002b0: 7581 e5bd 4af6 323e a085 e13d 9daa 4f3e
000002c0: d9f2 bf3d b8c6 cb3d f125 96bd 0683 a03d
000002d0: 17b7 c6bd 6a07 46bd ae41 18bd 2dca 373c
000002e0: 1137 28be e995 e9bd 055c 0cbe 8015 8f3c
000002f0: f906 063d c124 ee3d 5c32 4a3c 4e1c 42bc
00000300: 8578 2f3e 47df bb3d e972 92bb a1d2 e03d
00000310: 6b5f da3d 1e59 0e3e a3f9 4a3d 8797 553d
00000320: fa43 60bd 8df1 743d 281a 233e ea20 663e
00000330: 4677 9ebd 7646 093e 9f32 223e 9aed 393b
00000340: b60f 86bc b196 f93d 7f7f ce3d 81b6 1a3e
00000350: 96b6 82bc 39b2 d2bd 5ef2 a33d c920 4d3d
00000360: bed9 373e 670f fa3d 34ca 65bc 49e1 1ebd
00000370: 0d0b b33d eed3 c5bc fabc c83d a1f0 033e
00000380: e63f 9fbc 4246 ce3b 2532 203e 1090 823d
00000390: 5422 db3d 442f 193e 3fe2 d63d 7995 2b3e
000003a0: 573c 833d ffff 073e 7ebe d13d e13f 553d
000003b0: daa2 76bd 52b7 f73d 4e47 c93d 60a9 543d
000003c0: 113a 8b3d 166e 77bc 5275 313e 2743 3d3d
000003d0: 569c 5fbc f82d 243d cc99 ef3d 5a52 073e
000003e0: b565 e23d 8a5d bcbb 417d 053e 3edc c03d
000003f0: 81b9 2b3e f499 86b7 c02c 813d 7416 ab3d

lstm.bias_hh_l0 f4 [256]
-0.07391593 0.09273075 0.11439641 0.005204961 -0.123573475 0.060598046 -0.11319927 -0.07513898
0.03454499 0.10323919 0.066485286 0.06442835 0.13129453 0.0053418083 -0.109013475 -0.029838251
-0.115014635 0.099770255 0.08087626 0.0647762 0.010437922 0.052680593 0.0783603 -0.14097495
0.13409796 0.013827879 -0.07271579 0.096532345 0.1436925 0.08068457 0.03505451 0.01643159
0.00881565 -0.056136265 0.07144302 -0.07397731 0.041454256 0.18096761 -0.028239539 0.035175007
0.06026265 0.042336695 0.039521117 0.01784677 0.18702137 -0.04113967 0.11618773 -0.04759444
-0.023325901 -0.04167619 0.06921722 0.06224307 -0.13427074 0.0229104 -0.0254827 -0.09133486
0.11319496 0.112344995 -0.020844648 0.103502885 0.040524397 -0.09746482 -0.04792089 0.03540542
0.030778134 0.010299915 -0.023587272 -0.02363205 0.07983686 -0.08071376 0.05496468 -0.062445596
0.048241746 0.09273674 0.11436113 0.07120043 0.12158621 -0.021236217 0.0536827 0.1281314
0.07310751 0.04570873 -0.081978135 0.18530259 0.048978027 0.0482794 0.02420957 0.052552767
-0.00810317 0.023244418 0.10005311 -0.023123894 -0.0036810122 0.11952451 0.11555899 0.045207564
0.09269636 -0.07603194 -0.056544747 -0.0099166455 -0.0026456066 0.16657901 -0.10079548 0.07709484
0.013776325 0.004371324 0.054747827 0.1226501 0.14066537 0.1777007 0.019703893 0.17791253
-0.015264814 -0.031468272 -0.053085003 -0.013396023 0.067434475 0.14793107 0.15359642 -0.037927117
0.1230875 0.08536088 0.16997403 0.0053619384 0.10305772 -0.031822685 0.065097205 0.025019005
-0.053132243 0.11708949 -0.17115605 -0.09387991 0.001735655 -0.1600953 0.04641204 0.045687445
-0.09446704 0.029135413 -0.05132317 -0.025836937 -0.054571416 -0.063007414 0.050009903 -0.07156877
0.032863062 -0.049076233 0.11803817 -0.19162689 -0.08467707 0.14165036 0.15004745 -0.04871779
-0.11872956 -0.04131631 -0.010771353 0.18841717 0.023084652 -0.10213029 -0.12726852 0.0005763472
0.14220661 -0.053318236 0.06732293 0.008774875 0.026497167 0.010953014 -0.033907104 0.0030070918
-0.13977906 -0.11230021 0.041158516 0.10885173 -0.12311173 0.075657405 0.114407815 0.16238596
-0.0045365957 0.17024241 -0.11540934 0.11617145 0.0048646796 0.11363726 -0.034341894 0.02050218
0.0013842456 0.026387176 0.019524224 0.10485406 0.028633645 0.14134431 -0.09856395 -0.052322242
-0.02439113 0.07804313 -0.038798686 0.154564 0.15956005 -0.001371943 0.16466473 0.111217104
0.0628307 0.0168141 0.066272736 0.04343518 0.15935773 0.22500513 0.021133775 0.0932738
0.07665052 0.14700216 0.102342136 0.14576663 0.00013293767 -0.015176499 0.043268573 -0.043634515
0.031748477 -0.10225636 0.13693713 0.13404249 -8.9742825e-05 -0.008161018 0.0414884 -0.012685554
-0.008712049 -0.03440062 0.14349549 0.08197971 0.13094966 0.12394204 0.0041828053 0.16299212
0.06769352 0.07621195 -0.046791222 0.016566979 -0.0895809 0.070952624 0.013640748 0.027211344
-0.12296673 0.073043555 0.13263577 -0.041727863 -0.025084866 0.15421785 0.03656194 -0.03868818
-0.009747528 -0.018903047 0.16372801 -0.05118636 0.0021889776 -0.080753736 0.08586302 0.1464737
00000000: 3c61 97bd 9fe9 bd3d aa48 ea3d 618e aa3b
00000010: 1714 fdbd a835 783d 05d5 e7bd 77e2 99bd
00000020: 0c7f 0d3d 126f d33d 7029 883d 03f3 833d
00000030: 1372 063e 560a af3b 7542 dfbd 596f f4bc
00000040: cb8c ebbd 5954 cc3d 74a2 a53d 62a9 843d
00000050: d103 2b3c 9bc7 573d 5d7b a03d bd5b 10be
00000060: fa50 093e 548e 623c 04ec 94bd c0b2 c53d
00000070: 2024 133e f43d a53d 5195 0f3d 8b9b 863c
00000080: 846f 103c 24ef 65bd b850 923d 6a81 97bd
00000090: f0cb 293d 934f 393e 9b56 e7bc ab13 103d
000000a0: f8d5 763d 3e69 2d3d e5e0 213d 6433 923c
000000b0: 8882 3f3e 1282 28bd d5f3 ed3d 63f2 42bd
000000c0: f615 bfbc a7b4 2abd c2c1 8d3d 97f2 7e3d
000000d0: 457e 09be 97ae bb3c 18c1 d0bc c50d bbbd
000000e0: c2d2 e73d 2215 e63d 65c2 aabc 52f9 d33d
000000f0: e9fc 253d a39b c7bd b248 44bd 4605 113d
00000100: 6d22 fc3c fac0 283c 183a c1bc 0098 c1bc
00000110: 8281 a33d 414d a5bd a522 613d f4c6 7fbd
00000120: 2399 453d c3ec bd3d 2b36 ea3d 88d1 913d
00000130: 3102 f93d 93f7 adbc 64e2 5b3d e134 033e
00000140: 64b9 953d 1439 3b3d 27e4 a7bd f6bf 3d3e
00000150: 2f9d 483d 9fc0 453d 2653 c63c 9241 573d
00000160: 29c3 04bc 146b be3c a5e8 cc3d 526e bdbc
00000170: 233d 71bb 44c9 f43d 31aa ec3d 912b 393d
00000180: 97d7 bd3d a2b6 9bbd 779b 67bd 6d79 22bc
00000190: ea61 2dbb b093 2a3e dc6d cebd e6e3 9d3d
000001a0: 18b6 613c 533d 8f3b 423f 603d fa2f fb3d
000001b0: 950a 103e 2cf7 353e 0f6a a13c b42e 363e
000001c0: 4519 7abc e0e4 00bd a96f 59bd fe7a 5bbc
000001d0: 161b 8a3d 3e7b 173e 6148 1d3e 7759 1bbd
000001e0: 4d15 fc3d afd1 ae3d ac0d 2e3e 33b3 af3b
000001f0: ed0f d33d 8158 02bd af51 853d a8f4 cc3c
00000200: 32a1 59bd 9dcc ef3d 8843 2fbe 1c44 c0bd
00000210: eb7e e33a 06f0 23be 8d1a 3e3d c222 3b3d
00000220: ef77 c1bd 64ad ee3c 3f38 52bd fca7 d3bc
00000230: 4786 5fbd 080a 81bd 2fd7 4c3d a692 92bd
00000240: 6b9b 063d 2904 49bd ffbd f13d d739 44be
00000250: 2c6b adbd cb0c 113e 0aa6 193e 4e8c 47bd
00000260: 7c28 f3bd 4b3b 29bd 547a 30bc 6ef0 403e
00000270: 061c bd3c af29 d1bd ae52 02be 0216 173a
00000280: 9c9e 113e 3964 5abd 9be0 893d 7ec4 0f3c
00000290: 9610 d93c 4574 333c 2de2 0abd a112 453b
000002a0: 3e22 0fbe a7fd e5bd d595 283d a8ed de3d
000002b0: 0122 fcbd 45f2 9a3d a54e ea3d 8148 263e
000002c0: b9a7 94bb 0754 2e3e bb5b ecbd 4ceb ed3d
000002d0: e467 9f3b a7ba e83d 16aa 0cbd 30f4 a73c
000002e0: 936f b53a eb29 d83c 44f1 9f3c babd d63d
000002f0: 1b91 ea3c 90bc 103e e5db c9bd d94f 56bd
00000300: e8cf c7bc 14d5 9f3d 5feb 1ebd 0646 1e3e
00000310: b663 233e c5d2 b3ba df9d 283e cbc5 e33d
00000320: 62ad 803d b9bd 893c 00ba 873d 16e9 313d
00000330: ac2e 233e bf67 663e bd20 ad3c 5606 bf3d
00000340: f3fa 9c3d bc87 163e c198 d13d d943 153e
00000350: 2f65 0b39 daa6 78bc 633a 313d 1bba 32bd
00000360: b10a 023d c86b d1bd 3f39 0c3e 6f42 093e
00000370: 5034 bcb8 cab5 05bc beef 293d 12d7 4fbc
00000380: fbbc 0ebc aae7 0cbd 7bf0 123e fae4 a73d
00000390: ab17 063e 53d5 fd3d ea0f 893b 68e7 263e
000003a0: e6a2 8a3d 0315 9c3d 27a8 3fbd 79b7 873c
000003b0: 3176 b7bd 9c4f 913d 727d 5f3c 53ea de3c
000003c0: fbd5 fbbd dc97 953d acd1 073e d6ea 2abd
000003d0: c77e cdbc 49eb 1d3e f9c1 153d 7f77 1ebd
000003e0: 18b4 1fbc 90da 9abc 51a8 273e caa8 51bd
000003f0: f374 0f3b 3762 a5bd f3d8 af3d 34fd 153e

fc.weight f4 [5, 64]
0.03458231 0.33907115 0.19298278 -0.10387221 0.2286564 -0.17622025 0.17380941 0.02224682
0.07420898 0.13294783 -0.03511509 -0.24602592 -0.29964167 0.37858027 -0.044314023 0.5033081
0.29557014 0.021480156 -0.014835631 -0.026020123 0.14583968 0.053556874 -0.15100922 0.24973331
-0.050870236 0.25507668 0.07054619 0.111228384 -0.05898808 -0.07046974 0.34327188 0.17740898
0.13481547 -0.11488183 -0.19722837 -0.30257124 0.06635157 0.16620739 -0.08965081 0.14890972
0.29303557 -0.20696072 -0.18159938 0.11341816 0.33858213 0.07706781 -0.051399644 0.2004963
0.024456011 -0.045965314 -0.09881788 -0.007813925 0.34410182 0.37964055 -0.24706696 -0.15004593
-0.118109725 -0.32722476 -0.058823053 -0.322425 0.2852716 0.026827611 -0.2228293 0.03524062
-0.23917346 -0.19698694 -0.18260068 -0.08755839 0.22559747 -0.0042949608 -0.0043502217 0.0760565
0.2660707 0.09831769 -0.07406257 0.2618357 0.20819145 0.31431136 -0.13049836 0.47247767
0.21816443 -0.0060303723 -0.07151169 -0.034873772 0.15414171 -0.21400975 -0.18027514 -0.031030465
-0.15317215 -0.21567255 0.2839518 0.048880212 0.23061661 -0.0009731434 0.04927319 0.09479642
-0.060961477 -0.037866823 0.08732107 0.23899888 -0.22844224 -0.16441077 -0.19455639 -0.027809886
0.29447377 -0.143298 -0.32575473 -0.11609172 0.087840885 0.0561717 -0.426511 -0.25036395
0.23009057 0.08377094 -0.02263586 -0.0038492994 0.025815364 -0.10718703 0.013774025 -0.06048788
-0.00026697185 -0.10429721 -0.07914245 -0.11665574 0.32545736 0.11867429 0.18494566 0.13322057
0.16927712 -0.1248966 -0.08762716 0.08860468 -0.08213865 -0.13251914 0.048838463 -0.20345116
-0.14672606 -0.2255958 0.10650646 0.057602756 0.28034827 -0.1802287 0.21329375 -0.24244292
-0.09774125 -0.1706186 0.2320271 0.19817363 -0.17807826 0.11896642 -0.12435096 0.034783155
0.49198478 0.17565492 0.031765103 -0.135554 -0.10643346 -0.057796437 0.0021953029 -0.22392406
-0.16161104 -0.08032853 -0.13987885 0.100026116 0.07286833 -0.14250566 0.12626393 -0.11127136
-0.111851715 0.046492703 0.058117647 0.17951015 -0.01935627 -0.13380648 -0.18037751 0.0147748655
0.1634351 -0.036183618 0.056059364 -0.23003761 0.061552744 -0.038546182 -0.036144994 0.021485088
0.28578302 0.094099574 0.22807579 0.17943732 -0.117581606 -0.15856516 -0.008001653 -0.104003705
-0.25579685 0.15767242 -0.08544975 -0.13414845 0.10253717 -0.081366785 0.022895068 0.15056193
-0.017147036 0.025789568 -0.16143154 -0.24513343 -0.03484117 -0.09053831 -0.29817924 -0.21013094
0.28722647 0.11586525 -0.28055373 0.017116807 0.006228074 -0.019684343 0.14615051 -0.055326827
-0.016764889 -0.16742758 -0.1518164 -0.009860774 0.062493708 -0.08965154 0.033009306 0.23694184
0.104758285 -0.06581248 0.08525896 0.09992806 0.092116594 0.061608545 -0.23078322 0.037051827
0.060452953 0.10524382 -0.13220073 0.108807 -0.09661993 0.20272528 -0.082385875 0.036846843
-0.025021702 0.08716482 0.0057608075 0.08019843 0.15606931 -0.13334437 -0.25477648 0.0036100822
-0.2288146 -0.24506478 -0.009231026 0.09426089 0.06235151 0.11803016 0.13463002 0.085019045
00000000: 2ea6 0d3d bc9a ad3e 479d 453e f4ba d4bd
00000010: e724 6a3e 1573 34be 18fb 313e f73e b63c
00000020: e1fa 973d 7a23 083e d7d4 0fbd 38ee 7bbe
00000030: a26a 99be 46d5 c13e 9f82 35bd cdd8 003f
00000040: f854 973e 27f7 af3c 2511 73bc 2728 d5bc
00000050: ff56 153e 745e 5b3d 29a2 1abe 17ba 7f3e
00000060: 4f5d 50bd 6999 823e 857a 903d b5cb e33d
00000070: 7c9d 71bd 7052 90bd 55c1 af3e b3aa 353e
00000080: 110d 0a3e 2a47 ebbd 3cf6 49be 9eea 9abe
00000090: 55e3 873d 4532 2a3e d89a b7bd ca7b 183e
000000a0: c208 963e 83ed 53be 30f5 39be c847 e83d
000000b0: a35a ad3e bad5 9d3d 6f88 52bd e74e 4d3e
000000c0: f957 c83c 2046 3cbd 0761 cabd fa05 00bc
000000d0: 1d2e b03e 3f60 c23e 1fff 7cbe a4a5 19be
000000e0: 83e3 f1bd 018a a7be 71f0 70bd e414 a5be
000000f0: 1f0f 923e 94c5 db3c 5d2d 64be 7858 103d
00000100: e3e9 74be f2b6 49be acfb 3abe d051 b3bd
00000110: 0603 673e bebc 8cbb 4e8c 8ebb 83c3 9b3d
00000120: 6b3a 883e c95a c93d 1eae 97bd 540f 863e
00000130: 2430 553e 6bed a03e 5da1 05be 98e8 f13e
00000140: 7f66 5f3e 6e9a c5bb b974 92bd cdd7 0ebd
00000150: 53d7 1d3e 5f25 5bbe 0c9a 38be 9a33 febc
00000160: 29d9 1cbe 44d9 5cbe 2162 913e 9e36 483d
00000170: c326 6c3e 8c1a 7fba afd2 493d a024 c23d
00000180: beb2 79bd 3e1a 1bbd 64d5 b23d 1fbc 743e
00000190: c3ec 69be 4c5b 28be ca39 47be 8fd1 e3bc
000001a0: 44c5 963e b6bc 12be 53c9 a6be 7fc1 edbd
000001b0: ece5 b33d 4c14 663d a65f dabe b42f 80be
000001c0: dd9c 6b3e 1990 ab3d d76e b9bc 8744 7cbb
000001d0: be7a d33c e084 dbbd 73ac 613c 24c2 77bd
000001e0: 5bf8 8bb9 c799 d5bd 7015 a2bd 34e9 eebd
000001f0: 59a2 a63e 820b f33d 6562 3d3e f96a 083e
00000200: fb56 2d3e cac9 ffbd de75 b3bd 5f76 b53d
00000210: 4f38 a8bd 19b3 07be d70a 483d 8055 50be
00000220: 5b3f 16be 9602 67be 0f20 da3d def0 6b3d
00000230: cf89 8f3e df8d 38be ad69 5a3e f542 78be
00000240: 912c c8bd a4b6 2ebe 8398 6d3e 07ee 4a3e
00000250: 265a 36be aba4 f33d b7ab febd c878 0e3d
00000260: 6ee5 fb3e e2de 333e 201c 023d abce 0abe
00000270: c9f9 d9bd f5bb 6cbd 12df 0f3b 594c 65be
00000280: 5d7d 25be 4983 a4bd 673c 0fbe 7eda cc3d
00000290: fe3b 953d 01ed 11be 554b 013e 3de2 e3bd
000002a0: 8312 e5bd 226f 3e3d c50c 6e3d 82d1 373e
000002b0: 0a91 9ebc 9104 09be e2b4 38be 4712 723c
000002c0: 885b 273e 4635 14bd 819e 653d fb8e 6bbe
000002d0: bb1e 7c3d 9ae2 1dbd c60c 14bd 7f01 b03c
000002e0: 2752 923e 47b7 c03d b38c 693e 6bbe 373e
000002f0: a0ce f0bd e85e 22be 5d19 03bc e5ff d4bd
00000300: cef7 82be e174 213e 4700 afbd 365e 09be
00000310: 02ff d13d a1a3 a6bd 708e bb3c e82c 1a3e
00000320: f177 8cbc a544 d33c 4f4e 25be 4204 7bbe
00000330: 9db5 0ebd 266c b9bd f3aa 98be 912c 57be
00000340: 590f 933e c34a ed3d bda4 8fbe 8c38 8c3c
00000350: df14 cc3b 0f41 a1bc 7ba8 153e 629e 62bd
00000360: 8556 89bc 2372 2bbe c275 1bbe 158f 21bc
00000370: 67f9 7f3d 3a9b b7bd c434 073d e2a0 723e
00000380: 838b d63d b2c8 86bd 409c ae3d 15a7 cc3d
00000390: a0a7 bc3d 3e59 7c3d 7052 6cbe a8c3 173d
000003a0: 849d 773d 128a d73d a15f 07be 34d6 de3d
000003b0: abe0 c5bd 3797 4f3e edb9 a8bd b7ec 163d
000003c0: 50fa ccbc 7883 b23d 28c5 bc3b 133f a43d
000003d0: a2d0 1f3e 6d8b 08be 1072 82be 2197 6c3b
000003e0: 604e 6abe 43f2 7abe bb3d 17bc da0b c13d
000003f0: 4c64 7f3d ccb9 f13d 74dc 093e 771e ae3d

fc.bias f4 [5]
-0.10030712 -0.06786297 0.027847957 0.021492101 0.0037055686
00000000: d26d cdbd befb 8abd 6621 e43c 3410 b03c
00000010: 20d9 723b
