lstm数据增强的模型文件/采用128全增强结果079.pth (torch, 202598 bytes, 6 tensors)

lstm.weight_ih_l0 f4 [256, 128]
0.10593803 0.117613256 -0.018879306 0.13337868 -0.021468455 0.050440785 -0.024262726 0.104685366
0.13032511 -0.07023 0.13716346 0.016967272 0.071749315 0.011912412 0.02763522 -0.04984835
0.059782367 -0.0071830596 -0.071105585 0.028344553 -0.066814564 -0.019825634 -0.047244042 0.078927785
-0.099200815 -0.04809903 -0.036318135 -0.0770532 0.014118706 -0.11621158 0.12054726 -0.09519961
0.13022938 0.04267683 -0.013969076 0.11138593 0.06791286 0.17176412 0.09570656 0.029863603
0.08431774 -0.009823936 0.08086679 0.12958002 0.095421076 -0.029153237 0.099443085 0.036773305
0.09962977 -0.0366311 -0.097701356 -0.031036045 -0.06659787 0.122842826 0.02564711 0.042038552
0.036993142 -0.03523287 0.0586847 -0.11988878 -0.015754942 -0.094368696 0.02350511 -0.06264277
0.033959124 -0.022440601 0.10139217 -0.07731912 -0.0653582 -0.07673606 0.11646854 0.044602383
0.12029264 -0.100565426 -0.10891059 -0.06995206 -0.07681891 0.06897433 0.066262186 0.13490844
-0.002452535 -0.010164633 0.113446444 -0.020965973 0.064948514 -0.031780895 0.059820995 -0.101370946
-0.052640926 0.04019699 0.04309358 0.019547677 0.12640089 0.11757461 -0.058974046 -0.0036566607
0.13162355 -0.054640863 -0.043539632 -0.12965025 -0.08936642 -0.0021412051 -0.027889557 -0.09845589
0.0036443407 -0.09004015 -0.11745005 -0.05438852 -0.10057148 -0.07391141 0.14648582 0.033431087
0.03989867 -0.10089394 -0.072283484 -0.040111627 0.021689385 -0.07791323 -0.02935947 -0.05470783
0.020804822 -0.020943914 0.037209015 -0.0058099404 0.00080169365 -0.025548698 -0.023398085 -0.11441625
0.055292573 -0.030647699 0.06868608 0.03442979 -0.07891117 0.10554111 -0.016789343 -0.02821834
-0.08259041 -0.09162693 0.061619382 -0.010576725 0.06887837 -0.06134024 0.0936392 -0.10200495
-0.046171978 0.0030872463 0.03993769 0.055150006 0.0592547 -0.15527366 -0.009781151 -0.12056944
-0.09348997 -0.15901488 0.045905482 -0.15595397 0.008230551 0.0048830262 9.9038414e-05 -0.08372878
0.098782144 0.008068535 -0.009600733 -0.13936675 0.025224911 -0.04328849 -0.09161496 0.08280807
-0.0056917393 -0.11778578 -0.051318407 -0.0044245217 0.113387555 -0.0057821176 -0.014114115 0.019562034
-0.039017253 0.11024428 0.17325956 -0.03526923 0.108205184 0.15181734 0.12465374 0.03556478
0.17479429 0.117158264 0.10850175 0.058109675 0.029598573 0.06565345 -0.017098198 -0.03325662
0.095303126 0.11139669 -0.018999415 -0.061028525 -0.0206763 -0.045457788 -0.0040782704 0.00687583
-0.1161117 -0.07520811 0.114321776 0.048660085 0.00971546 -0.08649608 -0.08392732 -0.10992857
-0.03733769 0.042905193 0.1136927 0.061498273 -0.10161102 -0.093502976 -0.035464276 0.0903506
0.042349767 -0.021282123 0.07432176 -0.033739153 -0.061835065 0.12520066 -0.011583208 -0.015873907
-0.12282431 0.09477998 0.08175758 0.025546148 -0.14198707 -0.19268154 -0.15092178 0.03321321
-0.031667627 -0.012760095 -0.035207115 -0.04572852 -0.116027825 -0.23065406 -0.24031344 -0.24804065
-0.07989732 -0.18380904 -0.15258613 -0.1594631 -0.12733035 -0.153751 -0.14541496 -0.0035567128
-0.09776871 0.014589566 -0.08462084 -0.13432655 -0.05641748 -0.07956742 -0.064889014 -0.119320065
00000000: 0af6 d83d 38df f03d c6a8 9abc 6c94 083e
00000010: 9dde afbc ff9a 4e3d a0c2 c6bc 4865 d63d
00000020: f273 053e bfd4 8fbd 9474 0c3e f3fe 8a3c
00000030: 4ef1 923d 472c 433c 4263 e23c c92d 4cbd
00000040: 5bde 743d df5f ebbb ce9f 91bd d632 e83c
00000050: 13d6 88bd 5e69 a2bc f882 41bd e4a4 a13d
00000060: cc29 cbbd 7d03 45bd 53c2 14bd 11ce 9dbd
00000070: 2552 673c 5600 eebd 7be1 f63d 03f8 c2bd
00000080: da5a 053e e6cd 2e3d 8dde 64bc 4e1e e43d
00000090: e615 8b3d efe2 2f3e cd01 c43d 84a4 f43c
000000a0: c7ae ac3d 93f4 20bc 7d9d a53d a0b0 043e
000000b0: 206c c33d c5d2 eebc d1a8 cb3d 9b9f 163d
000000c0: b10a cc3d 7e0a 16bd a617 c8bd 4e3f febc
000000d0: 7764 88bd 0595 fb3d e319 d23c 9e30 2c3d
000000e0: 1f86 173d 5850 10bd 5e5f 703d 4088 f5bd
000000f0: 8210 81bc 6044 c1bd ca8d c03c da4a 80bd
00000100: b918 0b3d 5ad5 b7bc b3a6 cf3d 7d59 9ebd
00000110: 85da 85bd cc27 9dbd 0f87 ee3d fdb0 363d
00000120: fd5b f63d 3ff5 cdbd 840c dfbd 0743 8fbd
00000130: 3c53 9dbd 6a42 8d3d 78b4 873d 7025 0a3e
00000140: b6ba 20bb 9089 26bc 9c56 e83d d5c0 abbc
00000150: ba03 853d af2c 02bd dc06 753d 929b cfbd
00000160: 039e 57bd 99a5 243d e582 303d 7322 a03c
00000170: 3c6f 013e f5ca f03d c58e 71bd 96a4 6fbb
00000180: 53c8 063e 19cf 5fbd 9d56 32bd 09c3 04be
00000190: be05 b7bd 7653 0cbb a478 e4bc 3ea3 c9bd
000001a0: e4d5 6e3b f866 b8bd a789 f0bd 7fc6 5ebd
000001b0: 6cf8 cdbd de5e 97bd 6100 163e 09ef 083d
000001c0: ca6c 233d 7ba1 cebd 5d09 94bd 174c 24bd
000001d0: f0ad b13c f990 9fbd 4583 f0bc 5115 60bd
000001e0: e06e aa3c 9292 abbc 7b68 183d 5061 bebb
000001f0: c028 523a 814b d1bc 57ad bfbc 1153 eabd
00000200: 777a 623d e210 fbbc 4aab 8c3d 4006 0d3d
00000210: 2e9c a1bd f025 d83d ce89 89bc 262a e7bc
00000220: 2925 a9bd e6a6 bbbd 9b64 7c3d 004a 2dbc
00000230: 1a10 8d3d e73f 7bbd e9c5 bf3d f9e7 d0bd
00000240: d41e 3dbd 6653 4a3b b495 233d f9e4 613d
00000250: 0eb5 723d 0f00 1fbe 1f41 20bc 1ced f6bd
00000260: ab77 bfbd ccd4 22be 6307 3c3d 66b2 1fbe
00000270: 6fd9 063c cb01 a03b d8b2 cf38 ff79 abbd
00000280: 4b4e ca3d e331 043c 654c 1dbc 28b6 0ebe
00000290: 79a4 ce3c 464f 31bd a0a0 bbbd 4797 a93d
000002a0: c581 babb ac39 f1bd 4033 52bd 94fb 90bb
000002b0: bc37 e83d eb77 bdbb e43e 67bc 8f40 a03c
000002c0: 8ed0 1fbd c1c7 e13d f46a 313e 7876 10bd
000002d0: ae9a dd3d 0176 1b3e 764a ff3d 60ac 113d
000002e0: 46fd 323e acf0 ef3d 2a36 de3d 6904 6e3d
000002f0: b578 f23c 5175 863d 8511 8cbc 1838 08bd
00000300: 492e c33d f323 e43d a9a4 9bbc 0cf9 79bd
00000310: 5861 a9bc f231 3abd 03a3 85bb a44e e13b
00000320: f9cb edbd b606 9abd 8921 ea3d cc4f 473d
00000330: 982d 1f3c db24 b1bd 16e2 abbd 3b22 e1bd
00000340: 68ef 18bd 5bbd 2f3d b8d7 e83d 9de5 7b3d
00000350: 7019 d0bd 7d7e bfbd fd42 11bd bc09 b93d
00000360: f376 2d3d d957 aebc 0236 983d 1132 0abd
00000370: c446 7dbd 9a34 003e 7fc7 3dbc ff09 82bc
00000380: 508b fbbd 021c c23d 8570 a73d 2846 d13c
00000390: 0f65 11be 4f4e 45be 3d8b 1abe 930a 083d
000003a0: eab5 01bd b80f 51bc 5635 10bd d44d 3bbd
000003b0: ff9f edbd 9430 6cbe ba14 76be 5efe 7dbe
000003c0: 35a1 a3bd 7038 3cbe 8a3f 1cbe 4b4a 23be
000003d0: e362 02be e770 1dbe a9e7 14be bd17 69bb
000003e0: f63a c8bd 1309 6f3c b14d adbd e68c 09be
000003f0: 0416 67bd 3ef4 a2bd 88e4 84bd 145e f4bd

lstm.weight_hh_l0 f4 [256, 64]
-0.07514649 -0.034878977 -0.014051685 0.0016066572 -0.032917906 0.056088306 -0.03038369 -0.048865076
-0.07025757 -0.076170534 0.08038365 0.09945994 -0.10996148 -0.04474728 -0.07889274 -0.003857072
0.025814928 0.04816615 -0.060810868 0.046189327 0.004027169 -0.020723764 -0.036993 -0.0144041125
-0.0055613536 -0.11710108 0.029596487 0.03720102 0.052312154 -0.08332369 -0.022018446 0.07301364
0.1295945 -0.022049606 0.017068094 0.03768621 -0.08716201 -0.08332844 -0.04188184 -0.007207956
-0.04466634 -0.08643637 0.021123324 -0.009592513 -0.0671285 0.013734083 -0.10156063 -0.109856494
-0.16532274 -0.0577242 0.04016047 0.031264585 -0.03585895 -0.09754207 0.1145628 -0.0924701
-0.005149006 0.01418284 -0.047641102 0.10838181 -0.0193531 -0.018781677 -0.08928666 -0.050077118
-0.053307056 0.044528726 0.07406463 -0.049932346 0.03006509 0.10221235 -0.011372062 -0.05730928
-0.22958362 -0.12824833 0.11304899 -0.03582874 0.1167205 -0.018010965 0.1704778 0.014300585
-0.014543786 -0.04200349 0.11970424 -0.010970309 0.16171114 -0.05704433 0.03685054 0.015345465
-0.04886505 0.2794656 -0.109826475 -0.12284882 0.0841306 0.044539202 -0.11617308 -0.07316253
-0.06421962 0.0080404645 -0.12478466 -0.16483499 0.11696442 -0.013829693 -0.01918508 -0.11948312
-0.07884497 0.043004263 0.067111015 0.109088965 0.1383594 -0.11213207 0.06390391 0.03559296
-0.08112812 -0.1827108 0.018469028 0.07885742 -0.07796791 0.12435017 -0.02694177 0.018918233
0.026637524 0.0008981662 -0.19847524 -0.1851789 -0.03554594 -0.061831992 0.069608554 0.16058415
-0.044010855 -0.037027672 -0.008628555 0.2112259 0.10897818 0.06765151 0.017401358 -0.04305193
-0.020993521 -0.015519732 0.18736844 0.330288 -0.089993306 -0.012388722 -0.03442602 0.06007352
0.033341322 0.079629526 0.12038047 0.00059202954 0.094130255 -0.019815192 -0.048894577 -0.1551896
0.017706905 -0.14961714 0.09861485 0.043994766 -0.13488024 -0.042893425 0.047126416 -0.10430826
-0.13451515 -0.13834955 0.08284165 0.16943173 -0.052601513 -0.07211504 -0.07234016 -0.1298173
0.080421075 -0.105906755 0.036943976 -0.049536403 0.0068318495 -0.091327466 -0.20184965 -0.13577877
0.13591936 -0.13596268 0.16565233 -0.097252466 -0.01647884 -0.29244256 0.06464302 0.07294306
-0.0036055467 -0.025280394 0.0140174655 0.032989148 0.013053908 -0.15626751 0.17269942 0.030395536
-0.05574875 -0.04114362 -0.032313604 0.047525093 -0.09204042 -0.024479669 -0.003989725 -0.004145951
-0.003150023 -0.15015863 0.16733105 0.037358664 0.06992142 -0.08406481 0.08585082 -0.13318668
-0.04918895 -0.05077482 0.108535625 -0.04489104 0.008789011 0.04310052 0.016857328 -0.010632043
-0.05061646 -0.033461068 0.01851979 0.028702747 0.03333183 -0.032921106 0.048338145 0.08771794
-0.030450203 -0.21054883 0.004034863 0.11270189 0.05769677 -0.17556 0.05211367 0.032898787
0.04440272 0.009075932 0.09805427 -0.16449055 0.013738192 0.16996107 0.062853806 -0.14568116
-0.038416088 -0.109736115 0.07351538 -0.0631556 -0.01248731 0.120247394 0.09163793 -0.019804534
-0.21783897 0.18350725 -0.048917487 0.009890166 -0.11035689 -0.12689935 0.053100105 0.18249665
00000000: 67e6 99bd 42dd 0ebd 0a39 66bc 7896 d23a
00000010: edd4 06bd dabc 653d 37e7 f8bc bf26 48bd
00000020: 33e3 8fbd 4cff 9bbd 2fa0 a43d a7b1 cb3d
00000030: 7c33 e1bd ed48 37bd 8492 a1bd eec6 7cbb
00000040: d479 d33c de49 453d d114 79bd 0531 3d3d
00000050: 58f6 833b e2c4 a9bc f985 17bd 3aff 6bbc
00000060: 043c b6bb b1d2 efbd 5574 f23c 1960 183d
00000070: 4545 563d 9ca5 aabd 0760 b4bc 2d88 953d
00000080: 6cb4 043e 60a1 b4bc 63d2 8b3c db5c 1a3d
00000090: ff81 b2bd 1aa8 aabd 4b8c 2bbd b830 ecbb
000000a0: 0df4 36bd 8d05 b1bd d20a ad3c ea29 1dbc
000000b0: ab7a 89bd eb04 613c 05ff cfbd 71fc e0bd
000000c0: 5d4a 29be 3670 6cbd 4e7f 243d 4b0f 003d
000000d0: d6e0 12bd 23c4 c7bd e79f ea3d f760 bdbd
000000e0: feb8 a8bb 245f 683c 5123 43bd 48f7 dd3d
000000f0: 648a 9ebc 08dc 99bc eddb b6bd aa1d 4dbd
00000100: 8058 5abd c163 363d 32af 973d dc85 4cbd
00000110: 104b f63c b554 d13d e351 3abc 23bd 6abd
00000120: f817 6bbe 8853 03be 3b86 e73d 28c1 12bd
00000130: 280b ef3d bb8b 93bc bb91 2e3e 004d 6a3c
00000140: 0f49 6ebc da0b 2cbd 7f27 f53d d0bc 33bc
00000150: 9b97 253e 51a7 69bd 98f0 163d 8c6b 7b3c
00000160: b826 48bd 1d16 8f3e b4ec e0bd 2a98 fbbd
00000170: aa4c ac3d bd6e 363d 27ec edbd 3dd6 95bd
00000180: 9385 83bd 27bc 033c 1a8f ffbd 81ca 28be
00000190: 0b8b ef3d f095 62bc 072a 9dbc 91b3 f4bd
000001a0: 7979 a1bd 3d25 303d 8071 893d 096a df3d
000001b0: 16ae 0d3e 80a5 e5bd 0ee0 823d ecc9 113d
000001c0: 8026 a6bd 8a18 3bbe 5c4c 973c 0080 a13d
000001d0: a4ad 9fbd 4dab fe3d fdb4 dcbc 69fa 9a3c
000001e0: f036 da3c ea72 6b3a 183d 4bbe 8a9f 3dbe
000001f0: 9f98 11bd 8b43 7dbd ee8e 8e3d 2c70 243e
00000200: ba44 34bd 54aa 17bd c85e 0dbc 9a4b 583e
00000210: f42f df3d e08c 8a3d 4b8d 8e3c 3857 30bd
00000220: 9bfa abbc 7946 7ebc 83dd 3f3e 821b a93e
00000230: 694e b8bd 11fa 4abc 4c02 0dbd a70f 763d
00000240: e990 083d ce14 a33d 098a f63d 6e32 1b3a
00000250: 5dc7 c03d 7853 a2bc ae45 48bd 06ea 1ebe
00000260: 120e 913c 3c35 19be 95f6 c93d db33 343d
00000270: 0c1e 0abe 04b1 2fbd a107 413d 929f d5bd
00000280: 57be 09be 81ab 0dbe e2a8 a93d 837f 2d3e
00000290: af74 57bd 0db1 93bd 1427 94bd d4ee 04be
000002a0: ceb3 a43d a4e5 d8bd 9152 173d afe6 4abd
000002b0: b5dd df3b e509 bbbd adb1 4ebe 9709 0bbe
000002c0: 722e 0b3e cd39 0bbe c4a0 293e 4d2c c7bd
000002d0: a2fe 86bc 08bb 95be 8f63 843d 2c63 953d
000002e0: 094b 6cbb d418 cfbc 83a9 653c a11f 073d
000002f0: 0fe0 553c 9704 20be 1ed8 303e 0f00 f93c
00000300: cd58 64bd 3686 28bd 455b 04bd aca9 423d
00000310: b07f bcbd 9689 c8bc 3dbc 82bb c2da 87bb
00000320: 9e70 4ebb 2fc3 19be d558 2b3e 6605 193d
00000330: f632 8f3d 2c2a acbd 8ed2 af3d 1762 08be
00000340: 5a7a 49bd 42f9 4fbd ed47 de3d abdf 37bd
00000350: c9ff 0f3c 2c8a 303d 6118 8a3c 0532 2ebc
00000360: 3553 4fbd 790e 09bd d1b6 973c 0622 eb3c
00000370: f586 083d 48d8 06bd 38fe 453d 77a5 b33d
00000380: b472 f9bc 1d9a 57be e236 843b 40d0 e63d
00000390: 7353 6c3d 00c6 33be 2575 553d e1c0 063d
000003a0: a0df 353d 38b3 143c add0 c83d 3670 28be
000003b0: 2716 613c 460a 2e3e 7fb9 803d 712d 15be
000003c0: 305a 1dbd 54bd e0bd 3b8f 963d b957 81bd
000003d0: 9397 4cbc 4444 f63d abac bb3d 1e3d a2bc
000003e0: 2e11 5fbe 53e9 3b3e b45d 48bd 5d0a 223c
000003f0: cb02 e2bd e7f1 01be 7f7f 593d 67e0 3a3e

lstm.bias_ih_l0 f4 [256]
0.0082720425 -0.013613916 0.046677466 -0.02584551 0.1652308 0.034915373 -0.0015824374 0.17109548
-0.22110723 0.18798675 0.05177416 -0.11620647 0.03544344 0.040694892 0.028919786 0.09633602
0.158987 0.06654683 0.05877829 0.04468922 -0.1319749 -0.09400796 0.035219632 -0.11959633
0.015363689 -0.12863424 0.020513395 0.10262603 0.095656075 -0.015629018 -0.17134883 0.02795839
0.04351731 0.098744206 -0.11895348 -0.03905615 0.16274366 0.18049933 -0.01653774 -0.13101478
0.061910633 0.032096013 0.15057798 -0.108602226 0.12535588 0.075046785 0.09945049 0.14347322
0.05231802 -0.008059978 0.14112145 0.15974627 0.01227354 -0.051060304 0.25114408 -0.14777759
-0.13793243 0.12584564 -0.07251181 0.04570516 -0.007785491 0.0044146096 0.12234567 -0.0035169742
-0.06876828 0.009611892 0.025110617 0.008389734 0.009198959 -0.12349912 -0.06751094 0.13243446
-0.09008716 0.053237475 0.11900574 0.168943 0.12910035 -0.03405841 0.15468903 0.01010766
0.059018187 0.09570054 0.05539237 0.17727563 -0.007719007 0.094860695 0.026902236 0.042605784
0.14387019 0.1445925 0.011383575 0.20710298 -0.00868332 0.065727435 0.05884034 0.0011536615
0.029476717 0.17518523 0.098849125 0.07618568 0.12222018 0.021740152 -0.06817092 -0.06281374
0.1833042 -0.014188986 0.090205014 -0.076285414 0.12693015 0.07435964 0.0038050043 0.10598244
-0.04578262 0.014039234 0.105989866 0.06353281 0.015125985 0.13774623 0.08160982 0.0062348493
0.09893749 0.033432897 0.09117152 -0.030821424 -0.15809381 0.02621098 0.06197483 -0.016732356
0.019439131 0.016922437 -0.13528953 -0.118833445 -0.039408326 -0.12893972 -0.06473831 0.055005178
0.04976067 0.06852883 -0.20482887 0.043688696 -0.07409341 0.12450969 0.0832346 0.100372985
0.19603239 -0.26109964 0.054310486 -0.16727541 -0.081571996 -0.073570326 0.10417064 0.07137191
-0.13847034 0.17165056 0.07398811 0.15498798 -0.053191688 -0.05253923 -0.09099708 -0.17162086
0.10971902 -0.15482122 0.18675263 -0.12846713 0.21795595 0.18109624 0.1511239 0.12411281
-0.073058486 -0.041620757 0.10036233 0.029594606 -0.08194721 0.16922593 0.14342381 0.25111327
0.1395276 0.1257436 -0.07849932 0.09723536 -0.044583626 -0.104244985 -0.14738552 0.055366844
-0.10157224 -0.12638703 -0.097831 0.015270385 0.046810437 0.13859823 -0.014786717 -0.014342236
0.1221612 0.03891598 0.07283928 0.10829288 0.11673251 0.009777941 0.022660958 0.03620359
-0.10427729 0.16843167 0.21081944 0.1663447 -0.06930678 0.11627404 0.14385046 -0.04639544
0.0703988 0.18333991 0.10392625 0.13840719 -0.05351394 -0.06302336 0.086107425 0.11141398
0.19746643 0.18663992 0.022260178 -0.02006668 0.08299101 0.032255094 0.095805176 0.103170276
0.03852419 0.124432966 0.18644598 0.11980474 0.10204829 0.18201937 0.08768795 0.15823968
0.055021513 0.15851918 0.16833425 0.001910762 -0.046755787 0.13816987 0.10531858 0.08156738
0.029628906 0.0056038382 0.16815607 0.118800834 0.017917871 0.022839207 0.14040591 0.049123332
0.08887923 0.010536263 0.11162282 0.102282904 0.053977292 0.13007471 0.09453483 0.0051798774
00000000: 7687 073c e70c 5fbc df30 3f3d f7b9 d3bc
00000010: 4332 293e 6c03 0f3d ca69 cfba a733 2f3e
00000020: ef69 62be 997f 403e 2411 543d a8fd edbd
00000030: 242d 113d b0af 263d 30e9 ec3c d24b c53d
00000040: 7dcd 223e b449 883d 81c1 703d 0b0c 373d
00000050: 6e24 07be 3f87 c0bd 7642 103d ecee f4bd
00000060: fbb7 7b3c b2b8 03be b50b a83c 992d d23d
00000070: 55e7 c33d 6d08 80bc 1176 2fbe fe08 e53c
00000080: 353f 323d 673a ca3d e29d f3bd 57f9 1fbd
00000090: 46a6 263e d1d4 383e 287a 87bc bd28 06be
000000a0: 0196 7d3d 1c77 033d 1d31 1a3e d86a debd
000000b0: 4b5d 003e 21b2 993d b3ac cb3d a5ea 123e
000000c0: 6c4b 563d ff0d 04bc 2482 103e 8794 233e
000000d0: f516 493c 9c24 51bd f595 803e 0253 17be
000000e0: 293e 0dbe aedd 003e 1281 94bd 5535 3b3d
000000f0: 6f1d ffbb 6ea8 903b 5e90 fa3d 097d 66bb
00000100: 62d6 8cbd 327b 1d3c c8b4 cd3c 1875 093c
00000110: 3bb7 163c 1bed fcbd 2d43 8abd e69c 073e
00000120: 9e7f b8bd 8a0f 5a3d 48b9 f33d 65ff 2c3e
00000130: e232 043e d580 0bbd cd66 1e3e 999a 253c
00000140: 0ebd 713d a5fe c33d 1ce3 623d be87 353e
00000150: b9ef fcbb 5346 c23d 1462 dc3c 6783 2e3d
00000160: b552 133e 0e10 143e 2d82 3a3c ce12 543e
00000170: 7c44 0ebc 1b9c 863d 9102 713d 7536 973a
00000180: 2879 f13c c263 333e 6971 ca3d 3d07 9c3d
00000190: 934e fa3d 6718 b23c 329d 8bbd 7da4 80bd
000001a0: 19b4 3b3e ec78 68bc 68bd b83d 873b 9cbd
000001b0: faf9 013e de49 983d 615d 793b 520d d93d
000001c0: 8e86 3bbd d104 663c 3711 d93d 7d1d 823d
000001d0: fbd2 773c 590d 0d3e 0d23 a73d b54d cc3b
000001e0: bd9f ca3d eff0 083d 22b8 ba3d 367d fcbc
000001f0: 58e3 21be 69b8 d63c 52d9 7d3d 4b12 89bc
00000200: d03e 9f3c eca0 8a3c 5789 0abe f35e f3bd
00000210: a06a 21bd c608 04be 8595 84bd 1c4d 613d
00000220: d8d1 4b3d d858 8c3d a9be 51be ebf2 323d
00000230: 49be 97bd f0fe fe3d e776 aa3d 5a90 cd3d
00000240: b7bc 483e daae 85be ac74 5e3d 3f4a 2bbe
00000250: 380f a7bd 0aac 96bd 6b57 d53d 702b 923d
00000260: 2bcb 0dbe 2ac5 2f3e 1487 973d 2bb5 1e3e
00000270: 87df 59bd 6033 57bd ad5c babd 61bd 2fbe
00000280: 5eb4 e03d 7489 1ebe 153c 3f3e e38c 03be
00000290: d82f 5f3e 4b71 393e 39c0 1a3e db2e fe3d
000002a0: b09f 95bd 877a 2abd c48a cd3d 6370 f23c
000002b0: f0d3 a7bd 9049 2d3e b1dd 123e eb91 803e
000002c0: 53e0 0e3e eec2 003e 40c4 a0bd 5523 c73d
000002d0: 529d 36bd 657e d5bd 3bec 16be 58c8 623d
000002e0: 1b05 d0bd 9a6b 01be 9f5b c8bd a330 7a3c
000002f0: 4dbc 3f3d b2ec 0d3e fc43 72bc b3fb 6abc
00000300: a72f fa3d 5d66 1f3d c32c 953d a8c8 dd3d
00000310: 7411 ef3d a833 203c 79a3 b93c 374a 143d
00000320: 558f d5bd 5a79 2c3e 0de1 573e 4456 2a3e
00000330: b7f0 8dbd 1521 ee3d 894d 133e 2509 3ebd
00000340: 3f2d 903d 75bd 3b3e 49d7 d43d 9dba 0d3e
00000350: 6f31 5bbd 6412 81bd 1759 b03d 032d e43d
00000360: a434 4a3e 891e 3f3e fa5a b63c e162 a4bc
00000370: 31f7 a93d eb1d 043d 8135 c43d f04a d33d
00000380: 8bcb 1d3d b6d6 fe3d b2eb 3e3e 305c f53d
00000390: b2fe d03d 4963 3a3e bd95 b33d 9509 223e
000003a0: 3d5e 613d da52 223e d05f 2c3e 8972 fa3a
000003b0: ff82 3fbd 677c 0d3e 45b1 d73d cc0c a73d
000003c0: 52b8 f23c 67a0 b73b 1b31 2c3e da4d f33d
000003d0: 80c8 923c 4a19 bb3c 91c6 0f3e 8c35 493d
000003e0: 5006 b63d 4aa0 2c3c 819a e43d b379 d13d
000003f0: 4b17 5d3d 4e32 053e 7a9b c13d f6bb a93b

lstm.bias_hh_l0 f4 [256]
-0.0054182503 0.02264259 0.14168227 -0.11105958 -0.06540964 -0.071667716 -0.08416887 0.0010624356
-0.06410932 0.23892486 0.19520745 -0.03721998 0.13698445 -0.00032730403 -0.10470626 -0.027478663
-0.015592685 0.12820499 0.08911468 0.09857761 -0.12964185 0.057266768 0.024889605 -0.23747376
0.13576372 -0.02779927 -0.14683966 0.1298423 0.12390724 0.09857181 -0.050919946 0.037537068
0.012011898 0.02804794 -0.006497139 -0.1064116 0.06789622 0.1921448 -0.052777074 -0.052660994
0.087427236 0.07649385 0.044049174 -0.13556428 0.22599319 -0.100522555 0.1258299 -0.024901697
-0.030617371 -0.16129623 0.013264197 0.15196696 -0.13121013 -0.0011729465 0.04111994 -0.16633834
0.040242344 0.1439388 -0.069569245 0.07757712 -0.049249437 -0.053938895 -0.06193923 0.00027092363
0.027972383 -0.031219553 0.05048179 -0.021787468 0.13320075 -0.14367498 0.0940058 0.018931353
0.06333663 0.19911891 0.13785252 0.09682532 0.14159511 -0.07281325 0.11536155 0.14889905
0.14232981 0.10801659 -0.06243556 0.23110512 -0.015886042 0.050657995 -0.013468168 0.20560926
0.01920335 0.05050114 0.042361245 0.026279438 0.05129678 0.19441265 0.039267037 0.0562224
0.064545475 0.026444636 -0.041183516 0.046486836 0.020497257 0.1640604 -0.12826173 0.104310445
0.03135184 0.02082748 0.07410428 0.046905532 0.1475872 0.16313559 0.05839487 0.18607844
0.017920975 0.038483843 -0.076538645 0.047438696 0.08213753 0.18117778 0.18091913 -0.09902162
0.19835344 0.09742926 0.19934216 -0.053858936 0.0022615436 0.042766895 0.14481525 0.06858513
-0.069270454 0.12621751 -0.17936553 -0.07087587 -0.02715057 -0.14273788 0.07419665 0.04673046
-0.052945726 0.087469324 -0.07665809 -0.01848764 -0.09344942 -0.023785748 0.09327967 -0.030209504
0.08894714 -0.15034741 0.05623941 -0.19831446 -0.08318192 0.08343668 0.16777427 -0.048199333
-0.15716477 -0.025892215 0.06372886 0.24135992 -0.011250164 -0.16982517 -0.080437176 -0.05770472
0.18588358 -0.1736423 0.09684366 -0.013727928 0.05771176 0.010778232 -0.00294386 -0.031788096
-0.17906214 -0.08582417 0.09025082 0.09822833 -0.09299564 0.070115566 0.14771344 0.21070011
0.041266136 0.19648556 -0.1205942 0.13503198 0.057310037 0.05773918 -0.14455539 0.0646515
0.06408471 0.01405571 0.05876304 0.1026581 0.04272259 0.16366173 -0.12569202 -0.05481688
-0.073588036 0.025224583 0.03850989 0.15308028 0.16966492 -0.13060555 0.13777146 0.09527418
0.013305854 0.12544517 0.117812715 -0.01495531 0.16742659 0.20722161 0.0065880767 0.044041198
0.16341422 0.20847254 0.10543925 0.13308676 -0.037424784 0.02467902 0.049323954 0.017699448
0.04967335 -0.037716236 0.17322268 0.15276499 -0.004522131 0.048242938 0.039276935 -0.038362883
0.04925175 0.08373715 0.17350027 0.13803314 0.1259988 0.15636723 -0.013052614 0.15366937
0.058635097 0.10191854 0.01912881 -0.033585135 -0.07612293 0.08816719 0.020678725 0.05685948
-0.16131951 0.093749315 0.1274928 0.030866425 0.006481103 0.13697395 0.059975225 -0.12171482
-0.03141425 -0.0026183648 0.14499001 -0.04307363 -0.11153354 0.04933719 0.11732426 0.06811463
00000000: 948b b1bb f47c b93c 2815 113e 3573 e3bd
00000010: 7df5 85bd 86c6 92bd ba60 acbd 6c41 8b3a
00000020: bf4b 83bd b8a8 743e 76e4 473e fa73 18bd
00000030: a745 0c3e 019a abb9 3c70 d6bd ef1a e1bc
00000040: 7678 7fbc 2b48 033e c281 b63d 0fe3 c93d
00000050: d5c0 04be 8f90 6a3d 49e5 cb3c 522c 73be
00000060: a505 0b3e 4bbb e3bc 235d 16be 61f5 043e
00000070: 14c3 fd3d 04e0 c93d 6f91 50bd 78c0 193d
00000080: 8dcd 443c cbc4 e53c f4e5 d4bb 53ee d9bd
00000090: 2c0d 8b3d 9bc1 443e c62c 58bd 0eb3 57bd
000000a0: 0d0d b33d cfa8 9c3d e86c 343d 5dd1 0abe
000000b0: c26a 673e c5de cdbd 8ed9 003e a5fe cbbc
000000c0: 48d1 fabc d72a 25be 1352 593c 3a9d 1b3e
000000d0: f35b 06be 8ebd 99ba 626d 283d 9954 2abe
000000e0: 28d5 243d b164 133e 527a 8ebd c1e0 9e3d
000000f0: c7b9 49bd 08ef 5cbd fdb3 7dbd c10a 8e39
00000100: 5726 e53c 26c0 ffbc fec5 4e3d a27b b2bc
00000110: c765 083e 891f 13be 1d86 c03d ed15 9b3c
00000120: a3b6 813d d4e5 4b3e 3629 0d3e 5a4c c63d
00000130: 4ffe 103e 1d1f 95bd ad42 ec3d fe78 183e
00000140: e8be 113e cd37 dd3d 6ebc 7fbd d2a6 6c3e
00000150: 7223 82bc c27e 4f3d 97a9 5cbc 3c8b 523e
00000160: 5850 9d3c 49da 4e3d fc82 2d3d fa47 d73c
00000170: 931c 523d 1c14 473e 79d6 203d 7649 663d
00000180: 6b30 843d 6ca2 d83c 0cb0 28bd fb68 3e3d
00000190: dde9 a73c 73ff 273e 0b57 03be b7a0 d53d
000001a0: c96a 003d 649e aa3c fcc3 973d 0420 403d
000001b0: 1921 173e 040d 273e 762f 6f3d 598b 3e3e
000001c0: 02cf 923c 3ca1 1d3d 4bc0 9cbd 144f 423d
000001d0: b937 a83d ab86 393e dd42 393e d9cb cabd
000001e0: 2a1d 4b3e fe88 c73d 5a20 4c3e 309b 5cbd
000001f0: 6836 143b 572c 2f3d 734a 143e 5c76 8c3d
00000200: abdd 8dbd 2a3f 013e 99ab 37be 5e27 91bd
00000210: df6a debc e129 12be 6af4 973d 7068 3f3d
00000220: 9edd 58bd 1e23 b33d ebfe 9cbd 6473 97bc
00000230: 6962 bfbd 54da c2bc 6909 bf3d ec79 f7bc
00000240: eb29 b63d acf4 19be 4c5b 663d f212 4bbe
00000250: 485b aabd dae0 aa3d 05cd 2b3e aa6c 45bd
00000260: cdef 20be e91b d4bc 4784 823d 0e27 773e
00000270: 9c52 38bc a6e6 2dbe 3fbc a4bd c95b 6cbd
00000280: 4458 3e3e 49cf 31be f855 c63d 1aeb 60bc
00000290: 2b63 6c3d 2e97 303c c6ed 40bb 3c34 02bd
000002a0: 115c 37be 95c4 afbd 6cd5 b83d ef2b c93d
000002b0: 8074 bebd c098 8f3d 3142 173e c5c1 573e
000002c0: ae06 293d 8333 493e 18fa f6bd d345 0a3e
000002d0: eebd 6a3d eb7f 6c3d 5406 14be 0168 843d
000002e0: d83e 833d ec49 663c 83b1 703d 693e d23d
000002f0: e2fd 2e3d f196 273e 69b5 00be aa87 60bd
00000300: 53b5 96bd c9a3 ce3c 8cbc 1d3d 14c1 1c3e
00000310: a4bc 2d3e 76bd 05be f613 0d3e 1c1f c33d
00000320: cc00 5a3c b374 003e cb47 f13d 1e07 75bc
00000330: e071 2b3e e731 543e cbe0 d73b 8b64 343d
00000340: 0f56 273e d379 553e 89f0 d73d e547 083e
00000350: bb4a 19bd a82b ca3c ea07 4a3d 6ffe 903c
00000360: 4876 4b3d 577c 1abd 4961 313e 6d6e 1c3e
00000370: 622e 94bb 639a 453d dae0 203d 6622 1dbd
00000380: 34bc 493d 627e ab3d 0eaa 313e 8f58 0d3e
00000390: d405 013e bb1e 203e a2da 55bc 815b 1d3e
000003a0: 5b2b 703d abba d03d 06b4 9c3c 9190 09bd
000003b0: 57e6 9bbd 0091 b43d 6e66 a93c 7ce5 683d
000003c0: f130 25be a4ff bf3d 798d 023e 96db fc3c
000003d0: 6f5f d43b e642 0c3e 95a8 753d 9f45 f9bd
000003e0: 3bac 00bd df98 2bbb 4378 143e fa6d 30bd
000003f0: b26b e4bd cb15 4a3d b447 f03d af7f 8b3d

fc.weight f4 [5, 64]
-0.2927946 -0.069728896 0.20000064 -0.8205821 0.16943225 -0.5089956 -0.10172975 -0.25240725
0.0114693465 0.03405627 -0.032391023 0.027176091 -0.16711359 0.393384 -0.10907255 0.23143645
-0.18459313 0.05657297 0.40140682 -0.06397954 -0.21884005 0.38159767 -0.05189434 0.9618749
-0.23902783 0.44586235 0.13942361 0.19906333 0.068636455 -0.13154548 0.35017002 -0.12417282
0.21372227 -0.031516198 -0.29919165 -0.16211978 0.09632144 0.22955145 0.010699767 0.52773
0.2531871 -1.118915 0.03891677 0.27666828 0.73266166 0.2947302 0.008203491 0.2590724
0.37919486 0.18335515 -0.20307751 0.045822553 -0.35660174 0.3256289 0.0062773125 0.43266478
-0.2424126 -0.28026974 -0.44092846 -0.542591 0.31776407 0.12541342 -0.0089349225 -0.049354903
-0.2774949 -0.2916353 -0.20111929 -0.012871778 0.33937052 -0.13943876 -0.1932991 0.10856317
0.5177238 0.058029808 -0.0782015 0.2176681 0.09632185 0.42802203 -0.27301735 0.1738077
0.06715508 0.08958247 0.072134554 -0.10950021 0.1803704 -0.52830976 -0.20367132 -0.25420877
-0.3883184 -0.86113733 0.42822483 0.1149865 0.3218607 0.0029262225 -0.021565553 0.27166855
-0.025748951 0.27832642 0.37125713 0.24671014 -0.3293791 -0.0115503995 -0.14302479 0.030071095
0.21972467 0.03308769 -0.18562403 0.07306559 0.071469024 0.15915772 -0.8470114 -0.36984164
0.19410889 0.5356915 -0.12391941 0.12085564 -0.228217 -0.2367753 0.106205046 0.11743181
0.020078784 -0.2927485 -0.12122718 0.042399723 0.17601776 0.07127702 0.2739859 0.11655549
0.23944344 -0.09782003 -0.015100129 0.26270705 -0.17895812 0.04029681 0.19670302 0.12453678
-0.2062709 -0.15372837 0.09542529 -0.060430136 0.2098216 -0.37516242 0.18018536 -0.17182182
0.051681332 -0.08858386 0.19587167 0.44741082 -0.31604517 0.19529162 -0.31763232 -0.16638964
0.9831473 0.027068168 0.39459556 -0.229846 -0.21790259 0.23445459 -0.006228561 -0.3787497
-0.25134763 -0.42532408 0.0918285 -0.0036203759 0.083177656 -0.15273812 0.027289504 0.07550706
-0.28756177 0.21925117 -0.36368114 -0.15335709 -0.0971775 -0.19125721 -0.061834853 -0.018056124
0.14009288 -0.3401503 0.23633902 -0.3561493 0.26420945 0.03909462 -0.07699169 0.039786685
0.20880005 0.27822918 0.31826997 0.47559777 -0.12563035 -0.097196735 -0.098511 0.09381244
-0.26478454 0.038999926 0.087631166 -0.23259282 0.14380267 -0.21954374 -0.27978113 0.24095263
-0.17970441 -0.035189513 -0.07810555 -0.369489 0.06286613 0.14183262 -0.404573 -0.12583743
0.0016323129 0.13467477 -0.18416497 -0.19266754 0.02455202 -0.37903306 0.12469959 -0.044468835
-0.42589334 0.3294673 -0.42702147 -0.11823743 0.26967314 -0.10227483 -0.009558341 0.16063157
0.096674435 0.11995904 0.030858159 0.13046862 0.07095874 -0.094590746 -0.10744852 0.038928702
0.05373995 0.07480555 0.034083553 0.25552598 -0.3022999 0.49118805 0.371635 0.09407221
0.07468647 0.45771667 -0.058320913 0.18609132 0.17663628 0.029445034 -0.08463688 0.032938343
-0.075776495 -0.03657611 0.07753114 -0.52239233 -0.03744802 -0.050991643 0.12565458 0.0001430379
00000000: 2ce9 95be 06ce 8ebd f8cc 4c3e ab11 52bf
00000010: a67f 2d3e 894d 02bf b057 d0bd 863b 81be
00000020: ede9 3b3c 967e 0b3d 73ac 04bd 65a0 de3c
00000030: d31f 2bbe a169 c93e 6e61 dfbd adfd 6c3e
00000040: fb05 3dbe 0fb9 673d 3285 cd3e b407 83bd
00000050: 9b17 60be c560 c33e 298f 54bd 6f3d 763f
00000060: b6c3 74be 1248 e43e 10c5 0e3e 42d7 4b3e
00000070: 4591 8c3d dcb3 06be 7c49 b33e 524e febd
00000080: 03da 5a3e 2117 01bd a62f 99be ba02 26be
00000090: 2d44 c53d 890f 6b3e 134e 2f3c 5019 073f
000000a0: bda1 813e 9b38 8fbf 3167 1f3d 77a7 8d3e
000000b0: b78f 3b3f e0e6 963e ef67 063c 23a5 843e
000000c0: d425 c23e 74c1 3b3e 8df3 4fbe 6eb0 3b3d
000000d0: 8194 b6be d5b8 a63e eab1 cd3b 3d86 dd3e
000000e0: 023b 78be 847f 8fbe 60c1 e1be 3ee7 0abf
000000f0: f9b1 a23e 606c 003e c863 12bc 5e28 4abd
00000100: d013 8ebe 3951 95be 37f2 4dbe 26e4 52bc
00000110: f9c1 ad3e 09c9 0ebe 33f0 45be 5e56 de3d
00000120: 8c89 043f aab0 6d3d 1c28 a0bd 63e4 5e3e
00000130: 6444 c53d b425 db3e eec8 8bbe a5fa 313e
00000140: 9a88 893d 0477 b73d 48bb 933d a541 e0bd
00000150: 05b3 383e 4f3f 07bf 378f 50be a727 82be
00000160: abd1 c6be 7f73 5cbf 4940 db3e 0b7e eb3d
00000170: edca a43e dec5 3f3b 3eaa b0bc 2418 8b3e
00000180: 77ef d2bc cd80 8e3e 6a15 be3e 95a1 7c3e
00000190: 61a4 a8be e33d 3dbc 1775 12be a857 f63c
000001a0: 81ff 603e f586 073d 3a14 3ebe 69a3 953d
000001b0: 5a5e 923d 3efa 223e bdd5 58bf e25b bdbe
000001c0: 7bc4 463e 1423 093f 76c9 fdbd 2983 f73d
000001d0: b8b1 69be 3975 72be 0882 d93d 1780 f03d
000001e0: 437c a43c 22e3 95be f545 f8bd 55ab 2d3d
000001f0: 003e 343e b0f9 913d e147 8c3e a5b4 ee3d
00000200: a930 753e de55 c8bd 8866 77bc 8a81 863e
00000210: cc40 37be 450e 253d 846c 493e 240d ff3d
00000220: ae38 53be f86a 1dbe 566e c33d 9785 77bd
00000230: 79db 563e 4a15 c0be 8382 383e 0ff2 2fbe
00000240: ceaf 533d 746b b5bd 9592 483e 0813 e53e
00000250: acd0 a1be 87fa 473e b4a0 a2be 0c62 2abe
00000260: 8baf 7b3f 10be dd3c 6e08 ca3e c05c 6bbe
00000270: db21 5fbe dd14 703e f518 ccbb 7beb c1be
00000280: a3b0 80be 14c4 d9be 9510 bc3d d443 6dbb
00000290: 0c59 aa3d 6267 1cbe 3d8e df3c 72a3 9a3d
000002a0: 4c3b 93be 6183 603e 6a34 babe a409 1dbe
000002b0: ff04 c7bd eed8 43be 8b46 7dbd 70ea 93bc
000002c0: 8274 0f3e 2e28 aebe db02 723e 3359 b6be
000002d0: 7646 873e ae21 203d d2ad 9dbd 5df7 223d
000002e0: aecf 553e 0e74 8e3e 48f4 a23e 8d81 f33e
000002f0: 3ea5 00be 150f c7bd 23c0 c9bd bd20 c03d
00000300: d791 87be 63be 1f3d f877 b33d d02c 6ebe
00000310: 0241 133e 13d0 60be 793f 8fbe 49bc 763e
00000320: 6f04 38be e122 10bd cdf5 9fbd aa2d bdbe
00000330: f5bf 803d 923c 113e 3124 cfbe 87db 00be
00000340: 55f3 d53a 2fe8 093e be95 3cbe a44a 45be
00000350: 5121 c93c 9f10 c2be 8062 ff3d f424 36bd
00000360: b10e dabe f0af a83e 8fa2 dabe 7726 f2bd
00000370: 9912 8a3e 7775 d1bd 969a 1cbc 9a7c 243e
00000380: 3ffd c53d 16ad f53d 40ca fc3c 9199 053e
00000390: d152 913d cbb8 c1bd f80d dcbd b473 1f3d
000003a0: 6c1e 5c3d a733 993d 329b 0b3d 4dd4 823e
000003b0: 0dc7 9abe 007d fb3e f146 be3e eea8 c03d
000003c0: 38f5 983d d759 ea3e e9e1 6ebd b98e 3e3e
000003d0: 24e0 343e b636 f13c 1a56 adbd 5bea 063d
000003e0: b530 9bbd d5d0 15bd a5c8 9e3d 81bb 05bf
000003f0: 1863 19bd 9ddc 50bd 98ab 003e 72fc 1539

fc.bias f4 [5]
-0.111901335 -0.08140741 0.030983811 -0.025141964 0.09845017
00000000: 872c e5bd eeb8 a6bd c3d1 fd3c 85f6 cdbc
00000010: 3ea0 c93d
