lstm数据增强的模型文件/采用64全增强结果091.pth (torch, 137062 bytes, 6 tensors)

lstm.weight_ih_l0 f4 [256, 64]
00000000: e500 0d3e 1815 093e 338b b93c f046 533e
00000010: 0ecb 563d 8559 853d cb83 3cbd 486c d73d
00000020: 9886 1e3e 5439 81bd 6745 103e e57a 9b3d
00000030: b669 193e 89c6 423d 784c e03d 70f2 ac3b
00000040: 7931 f33d 98a5 103c 80f3 95bd 7f6e 883d
00000050: df49 9cbd 626f 993d 8d33 613b f56e e03d
00000060: 0cb4 d3bc b90a 53bb a71a 55bc f619 a6bd
00000070: ca8c 28bc ef66 14be caad b23d 76b3 0cbe
00000080: a3a4 9b3d 16ac 763c 60f1 9fbd 8ebe 5a3d
00000090: 0f36 723b 3d2d 1b3d b778 6bbd 399b 19be
000000a0: 5a21 a937 e2e6 bcbd 0f77 243e bea7 753e
000000b0: 1c17 1d3e 3c7e 0f3d 5e59 273e 94a4 e03d
000000c0: d180 053e 19ce 6cbd b892 b3bd 9b22 33bc
000000d0: 2fbd a2bd 51a8 e23d 30f7 8b3d c5e6 883d
000000e0: 819c 003d b715 2e3c baba ac3d d1fd fabd
000000f0: aa15 9bbd bb27 febd 79db d83c c1c8 b2bd
00000100: 13c9 993d 4393 d6ba e210 053e a4cf 61bd
00000110: 9d59 4cbd e2d8 6fbd 6303 fb3d 6660 583d
00000120: d141 f03d a80a f3bd ae49 14be ba6a edbd
00000130: a152 c9bd 06fb 2d3d 52eb 273d af42 cd3d
00000140: b125 45bd 4dba 29bd 28ee 073e 0d29 f63c
00000150: 7cd5 1c3e 69af 19bd 8c3c b33d 93ea aebd
00000160: 40c2 7ebd 3611 3f3d 3785 0c3d 8881 16bd
00000170: 0e1b 963d d660 843d 23ef fabd 19ee dbbd
00000180: dd88 aa3d c991 8ebd c9f2 83bd 5024 0abe
00000190: 6c8d aebd 36c7 f23c 6819 833a 44b6 4cbd
000001a0: 6385 2b3d 996b 4dbd dd3c 03be 4d7b 8ebd
000001b0: 2afe fabd beb2 e1bd 1117 b73d 67be a6bc
000001c0: 195d b4bc 1972 33be cd3f 19be 50d4 09be
000001d0: a2a0 aebd f8f0 58be 0b7e 13be 46bf 1cbe
000001e0: fabf 98bd 8530 f0bd 4fbe 9bbd 860d 09be
000001f0: 0ac6 debd 3c8d a2bd de7f cbbc 514a 9bbd
00000200: dff1 fa3d b056 e2bb 6232 f63d a637 533d
00000210: eefe c6bd 8f08 b93d d322 f9bc 8dcd 42bd
00000220: e6fa cebd c0ed fcbd 0035 0a3d 7927 06bd
00000230: d896 3e3d 85a7 d2bd f45f bf3d ab32 bbbd
00000240: f454 b1bc b113 e83c fac5 8b3d 5595 d33d
00000250: 3813 ec3d baec 97bd 79b3 793d 644f a6bc
00000260: c64d c03c 60f8 56bd 29b5 1b3e 65f7 58bd
00000270: 1cd8 da3d 5e61 a73d bcc3 a43d d163 f3bc
00000280: f681 193e b377 8c3d f1cc 6c3d b05f 8bbd
00000290: 8a08 c73d 9d3f c43c acae 74bc 06d8 1a3e
000002a0: b0d7 8c3d a868 ddbc 7003 13bd adf8 ad3c
000002b0: 8009 db3d 99f2 0c3c 88e9 adbc c927 413c
000002c0: 7ef4 19bd 41da d03d 4dd8 1a3e 40a3 7fbd
000002d0: 78f0 aa3d fc35 f33d 5cca a43d d787 6f3c
000002e0: 456d fc3d fc7b 023e e36b dd3d ed18 223d
000002f0: 4976 ee3c 97d0 9c3d 018d 1c3d be82 c93c
00000300: 7b6e 46bd 1a3b c0ba 25e5 2ebe bce7 ffbd
00000310: 3666 bebd 57cc d0bd 7ebf fbbd 0cf9 54bd
00000320: 0a20 4dbe 0f33 09be 47f0 5b38 272d 87bd
00000330: d01a 84bd 5761 34be 0fb2 16be 1305 f3bd
00000340: d4b0 c83b 6427 0c3e e490 693e e24a 9b3d
00000350: 35cc f1bd a34f 13be 0d07 35be 82ee 53bd
00000360: 5e79 eabd ae4d 34be 55f7 a1bd 9c31 3dbe
00000370: 8ac6 84be 6244 e23c e98e 5abe f73d 4abe
00000380: f7a0 87be 8bde 09bd 6b2b 073c 9e9e 90bc
00000390: d7bb c2bd 8131 81bd 83ee 8dbc 44ea 853e
000003a0: 692a 113e a995 d63d 4472 5c3d a702 ebbd
000003b0: 3a7e fdbd afb6 62be 841e 6abe 1049 62be
000003c0: bba3 bfbc 9879 4fbe 0834 0fbd 85d5 79be
000003d0: f899 0abe 6054 37be f182 4cbe 4b16 863c
000003e0: de84 a1bd 47eb d93d c5dd b03c 8c22 18bd
000003f0: 2733 e43d f7d5 253d 0814 87bd e63b 96bd
0.13769872 0.13386953 0.022649383 0.2063253 0.05243974 0.06511215 -0.046024125 0.105187
0.15481031 -0.063097626 0.14088975 0.075918 0.14981732 0.04755262 0.10952085 0.0052779242
0.118746705 0.008828543 -0.073218346 0.066617005 -0.07631277 0.07491948 0.0034363002 0.109586634
-0.025842689 -0.0032202436 -0.013006843 -0.081104204 -0.010287473 -0.14492391 0.08724554 -0.13740334
0.07599761 0.015055677 -0.078097105 0.053404383 0.003695849 0.03788494 -0.05748817 -0.15000619
2.01619e-05 -0.09223725 0.16061042 0.2398977 0.15340847 0.035032496 0.16342685 0.10968891
0.13037421 -0.057813738 -0.08768219 -0.010933544 -0.0794624 0.1106726 0.06834257 0.06684641
0.031399254 0.010625294 0.08434053 -0.12255443 -0.075724915 -0.12409922 0.02647184 -0.08729697
0.07509055 -0.0016370792 0.12994722 -0.055129662 -0.04989015 -0.058556445 0.12256505 0.052826308
0.117313035 -0.11867267 -0.14481232 -0.11592622 -0.09830213 0.042475723 0.040995903 0.100224845
-0.04813165 -0.041437436 0.13274443 0.030048871 0.15315813 -0.0375208 0.08751783 -0.08540835
-0.06219697 0.046647273 0.03430673 -0.036744624 0.07329379 0.064637825 -0.12252643 -0.10738773
0.08326886 -0.069614 -0.06442792 -0.13490415 -0.08523068 0.029636007 0.0010002078 -0.04997851
0.041875254 -0.05015144 -0.12816186 -0.069571115 -0.12255509 -0.110204205 0.089399464 -0.020354463
-0.022017049 -0.17523994 -0.14965744 -0.13459897 -0.08526732 -0.21185672 -0.1440355 -0.1530734
-0.074584916 -0.11728004 -0.07604658 -0.13384065 -0.10877617 -0.079370946 -0.024841245 -0.07582534
0.122531645 -0.0069073066 0.120213285 0.051566742 -0.09716593 0.090348355 -0.030412113 -0.04755931
-0.10106449 -0.12350035 0.03374195 -0.032752488 0.046530575 -0.10285858 0.093444735 -0.091405235
-0.021646954 0.028329702 0.068248704 0.10331217 0.11527103 -0.07418199 0.060962174 -0.020301528
0.023474585 -0.052482963 0.15205826 -0.05297031 0.10685751 0.08172868 0.08045146 -0.029710682
0.14990982 0.06858768 0.057812635 -0.0680536 0.097184256 0.023956114 -0.014934223 0.15121469
0.068770766 -0.027027443 -0.03589195 0.021236742 0.10695171 0.008602762 -0.02122952 0.011789271
-0.03758668 0.10197879 0.15121575 -0.062411547 0.08346647 0.11875531 0.080464095 0.014619789
0.12325529 0.12742609 0.108115934 0.039574552 0.029109137 0.07656973 0.03822041 0.024598476
-0.048445206 -0.0014666051 -0.17079599 -0.12495372 -0.09296839 -0.10195225 -0.122923836 -0.051995322
-0.20031753 -0.13398384 5.2437445e-05 -0.06600409 -0.064504266 -0.17615257 -0.14716361 -0.11866202
0.006124595 0.13686901 0.22809178 0.07582642 -0.118065275 -0.14385848 -0.17678471 -0.05174113
-0.1144893 -0.17607757 -0.07908503 -0.18475956 -0.25932723 0.027620498 -0.21343578 -0.197502
-0.26489994 -0.0336595 0.008250098 -0.01765376 -0.09508484 -0.0630827 -0.017325645 0.26155293
0.14176334 0.10477764 0.05381991 -0.11475115 -0.123775914 -0.22140001 -0.22863203 -0.22098184
-0.023393502 -0.20261228 -0.03496173 -0.24397857 -0.13535297 -0.1790328 -0.19971825 0.016368052
-0.078866705 0.10640579 0.021590123 -0.03714232 0.11142569 0.040487256 -0.065956175 -0.073356435

lstm.weight_hh_l0 f4 [256, 64]
00000000: aad9 c63d 5f9f 8e3d ed5d 82bd eb21 82bd
00000010: d4e6 e83d 5865 8b3d 065f 27be 8be0 e93d
00000020: bac4 6abc 4ccc 10be 061c e8bd 7f17 ee3b
00000030: 52c9 5f3d ac4f bfbd 11da 683d 0aca 083e
00000040: c781 bf3d 4402 7b3c 9428 f1bc a2e9 0cbb
00000050: 63d8 103e 70a5 efbc ec51 1b3e 1630 e73d
00000060: 9fc9 43be 96a6 d0bc c84c 0ebe aa31 20bd
00000070: bbd3 a03b 5d67 ef3c a9e5 c43d 67ad 8bbb
00000080: f3fe febd 9a03 183e 734f 94bd 7867 963c
00000090: 2413 f93c 6232 debd a5c5 213e 0718 88bd
000000a0: 6705 09be ec78 983d e723 283e b03c 40bd
000000b0: fe3f eabd e197 b53d f163 2f3d 6f38 a7bd
000000c0: ac17 aebd c636 5fbc 8d2d 0e3d c09a b2bb
000000d0: bd5f 963d c171 2bbe f1eb 823d 440c 353c
000000e0: 6282 9bbd 0245 333e 4bb5 a8bd c9a1 0b3e
000000f0: 6073 fc3d d07f b5bd 372a 083e f4c2 533d
00000100: 34d0 ab3d 6989 bdbd 6419 e1bd f665 323e
00000110: 4a66 20be 7679 8c3d 78c9 ecbd f143 093e
00000120: 0f23 5abb 2267 adbd 96d5 0cbd 215b c2bd
00000130: e17d 043e 1246 f4bd 953c 973d 3c53 b23d
00000140: 4028 fdbc c2e8 f6bd d44c d1bd e370 313d
00000150: cac0 9c3d 8b8e 753d 2115 06bd 3e46 e83d
00000160: c3a5 c33d 76f1 babc 42fe 753c a4e0 29be
00000170: 896f 06be 6f73 9b3b b907 17be abfa cb3b
00000180: 29ac f23d b3bf b23d 5afb 04be 73b4 16bd
00000190: 3def e4bc 2032 103e 4784 5e3d 1d84 d4bc
000001a0: 8877 16bd 62c1 07be 22ef acbd 0bf1 ebbd
000001b0: ecd9 ecbd 7da7 083e 3714 97bd a91c 49bc
000001c0: 85d2 ac3d 9191 febd cc2e cdbd 4b45 19bc
000001d0: 777b b13d a9ac d43c fe95 7d3d f2ec f8bc
000001e0: a36c 163d 553b 28be 8bcb 99bc 19f9 bbbc
000001f0: 9fd4 a53d 10b3 ff3d 0549 33be c042 813c
00000200: 13d2 553d 4556 9fbd 1bab 1bbd 8b45 8ebd
00000210: c930 f2bc ea15 3f3d 070c 75bd 98ed 923d
00000220: ffed 3f3e 175e 333c db73 153e 5023 ef3d
00000230: 22ef fcbd 7b33 e13d 1038 813d 6356 363e
00000240: cee1 02be 2233 343e 73a9 4f3d f04a cb3b
00000250: 24ac b0bc 148d 903d 1c17 16bc 385b 9f3d
00000260: 45f6 333b 2724 013e 553d eabb 7c77 a9bd
00000270: f4fb 933c a12b 7d3d 3507 18bb fbf1 7f3d
00000280: 0ef8 6a3d 12bf 2abd 363c d83d 44ce 4a3c
00000290: 4bae bdbd 9df5 03be c67f 1abe 3b3c 63bb
000002a0: 8fbc f8bc 677e 1d3d af92 bfbd 932c f3bc
000002b0: c4c8 333e d2b1 8e3d 96f4 be3d 2c63 8e3d
000002c0: 5927 0e3e 66ed d83d 331a 913d 87fd 79bd
000002d0: 71ca e33d 3a0d bcbd 837f a0bd 9222 b73c
000002e0: 38f9 373c f0c6 063d cafd 233d f56d d83c
000002f0: ec34 633d e53d e1bd a2fa bd3d 0826 0fbe
00000300: ecae 47be af3a f33d 2691 ed3b f002 61bd
00000310: 1b86 ecbd 5931 ad3d 87b3 00be 273a 1d3e
00000320: a601 57bd fb30 cd3d c164 e4bb d431 a7bd
00000330: 4dd6 20bd 7e78 e4bd 67ed b9bb 9040 073d
00000340: 949e cabd 8602 cb3d 96fe 4d3e c8c8 bd3d
00000350: e690 a23c f6a4 db3c c833 f4bc c24a 2bbd
00000360: 6304 333d 07fd 223d 2ddd 943d b07f 7abc
00000370: b051 17be f7d8 8fbd 67b3 fcbd 1761 ab3d
00000380: 2cf0 1d3d 51d5 f5bd 31f7 1abd 8bb1 c83d
00000390: 57c1 a43d eec0 d6bd 46c1 dfbb abfe d5bd
000003a0: 19a7 d9bd 1d29 a43c d212 c0be 4a7e 6b3d
000003b0: aae0 a3bd 96db b9bd e3a5 b3bd e777 9c3d
000003c0: 6fa7 4bbd 0afb fbbd 7289 6c3b 859a b6bd
000003d0: bd4c 83bd f866 45bd 5a28 8e3c 72b8 1bbc
000003e0: 3a87 fd3c 9d93 73be 5a01 b6bd 6526 cc3d
000003f0: 6abc be3b 7a7a f4bd 9f5b 4a3e a483 353e
0.09709485 0.069639914 -0.06365571 -0.063541256 0.11372152 0.06806439 -0.16344842 0.11419781
-0.01432913 -0.14140433 -0.1133347 0.0072659845 0.054635353 -0.09341368 0.05684859 0.13358322
0.09350925 0.015320364 -0.029438294 -0.002150156 0.14145045 -0.029253691 0.1516797 0.112884685
-0.19119881 -0.02547006 -0.13896477 -0.039109863 0.0049080527 0.029224092 0.09614117 -0.0042626145
-0.124509715 0.14845124 -0.07241716 0.018359885 0.030404635 -0.108494535 0.15798052 -0.06645208
-0.13380967 0.07444939 0.16419946 -0.046932876 -0.11437987 0.08866859 0.04281992 -0.08165061
-0.08500609 -0.013623899 0.03471141 -0.0054505765 0.073424794 -0.16742612 0.063926585 0.011050288
-0.07593228 0.17506793 -0.08237704 0.13635935 0.123266935 -0.08862269 0.13297354 0.051699594
0.08389321 -0.092547245 -0.10991171 0.17421708 -0.1566402 0.06859104 -0.115618646 0.13404824
-0.0033285057 -0.08466937 -0.03438338 -0.09490038 0.12938644 -0.11927427 0.07384602 0.08707282
-0.030902982 -0.12056114 -0.10219732 0.043320548 0.07653959 0.059950393 -0.032734994 0.11341523
0.09553101 -0.022820216 0.015014233 -0.165896 -0.13128485 0.0047439854 -0.1474904 0.0062249503
0.11849243 0.0872797 -0.12986508 -0.036793184 -0.027946109 0.14081621 0.05432537 -0.025941903
-0.036735088 -0.13257363 -0.084440485 -0.11520585 -0.11565003 0.13345142 -0.073769026 -0.0122748995
0.08438591 -0.12430108 -0.100186914 -0.0093549 0.08666127 0.025961237 0.06191062 -0.030386422
0.036724698 -0.16428883 -0.018773815 -0.022945927 0.08097195 0.12485325 -0.17508323 0.0157789
0.052202296 -0.077801265 -0.038004976 -0.06946858 -0.029564278 0.04665176 -0.059825923 0.07174224
0.18743132 0.010947726 0.14594977 0.11676657 -0.123502985 0.10996147 0.06309521 0.17806391
-0.1278145 0.1759763 0.05069871 0.0062040016 -0.021566458 0.070581585 -0.009160783 0.077810705
0.002746002 0.12611447 -0.0071484246 -0.08274743 0.018064477 0.061809186 -0.0023197655 0.06248663
0.05736547 -0.041686125 0.10558359 0.012378279 -0.09261759 -0.12886663 -0.15087804 -0.0034673351
-0.03036335 0.038450625 -0.093541496 -0.02968434 0.17557055 0.0696751 0.09323995 0.06952509
0.13882197 0.10592155 0.07085075 -0.0610328 0.11122597 -0.0918221 -0.07836821 0.022355352
0.011228852 0.032904565 0.040036954 0.02641962 0.055470392 -0.109981336 0.0927632 -0.13979352
-0.19500321 0.118764274 0.007249969 -0.054934442 -0.11549016 0.08456678 -0.12568484 0.15354215
-0.052491806 0.10019108 -0.0069700186 -0.08163801 -0.039266873 -0.111557946 -0.0056740525 0.033020556
-0.098935276 0.09912591 0.20116648 0.092668116 0.019844484 0.026812058 -0.029809847 -0.04181934
0.043705355 0.039792087 0.072687484 -0.015289232 -0.14777255 -0.07023805 -0.12338906 0.08368128
0.038559124 -0.120035775 -0.037833396 0.09799489 0.08044689 -0.10486017 -0.00682846 -0.10448965
-0.106275745 0.020039136 -0.3751436 0.057493486 -0.08001836 -0.09075086 -0.08771875 0.07640057
-0.049720224 -0.12303741 0.0036092666 -0.08916191 -0.06411121 -0.0481939 0.017353225 -0.009504424
0.03094827 -0.23786779 -0.088869765 0.09968261 0.0058208006 -0.11937423 0.19761513 0.17725998

lstm.bias_ih_l0 f4 [256]
00000000: 97b5 483c 9233 05be fa11 a53d 5bdf 8e3d
00000010: ea0b 9e3b 0103 ac3d 04c2 dcbd dafc 783d
00000020: ef02 0b3d 8364 1c3d 5dc2 0bbe a3bc f93d
00000030: 3041 16bd 46fd 1bbd ae08 9ebd f411 473c
00000040: f297 e13d 406d e03d 9606 c3bd f50c 363d
00000050: 3eb7 ae3d 7fd7 343c 76e0 1abd 9fd9 84bd
00000060: 026f 633d 84e4 acbd 68b3 f2bd 5c20 9f3d
00000070: 3e74 1dbd b87b 12be bce5 baba cbc6 b93d
00000080: df36 4b3e a8ec 44bc 03e0 fd3c b4b2 e03c
00000090: 1ebc bcbc 468b d4bb 6def 8ebd 2488 8e3d
000000a0: 65eb 8abd 3a57 0bbd e796 a93d 5fef 243c
000000b0: fb23 d3bd b3a5 3cbd 957c f0bd 62da 0bbe
000000c0: dfb4 b8bd ce49 c2bc 9065 293d 500b c33d
000000d0: 3b36 163c cbec eabd fd22 013e 0e27 87bd
000000e0: 6d91 13bd d3c0 603d 0824 fd3c 902d 7c3d
000000f0: 2e94 773c aa9a 243d 3623 94bd 39b4 a5bd
00000100: dca6 383d 0f71 363e a527 683d 63bd 4f3e
00000110: d871 a739 394a 833d bc30 e33b f548 6f3d
00000120: 6b7f a53d 8045 87bc 8e58 803e 7280 d93d
00000130: bc8b 863d 2be1 21bd 957f 063e a4a1 543e
00000140: 9931 733d 59a8 ce3d 761d 473e 1f2a 23bd
00000150: bd8b 423e bfd0 f73d 0b5b b8bc f618 223d
00000160: 7132 a73d c4b7 103d 61fc e03d ec99 3bbd
00000170: 1219 893d 3b0c 0b3e 7395 91bd 7143 8ebd
00000180: a8a6 e3bb 5a68 883d d3c5 6a3d 33aa df3c
00000190: 94d4 493e 0541 9a3c 5ae1 f73c 2c83 8a3d
000001a0: 71a6 b5bd 6d13 1f3e ace1 6f3c cc2b 1e3e
000001b0: 57d9 603d 4f07 a9bb 3741 cb3c 0ab0 3d3d
000001c0: c8ab b4bd 923a 24bd 236e 09bd dca0 0b3e
000001d0: ff5e 10bd f44c 973d 3488 ad3c f78b 883d
000001e0: 00b2 de3d a3be 013e 6dfd f9bc 9905 fb3d
000001f0: 941e e23d d5b3 843d 0d8a 2a3d 61fb 9e3d
00000200: fd3e b0bd 76b5 edbc 0d03 ae3d dc1c fc3d
00000210: fd77 ec3d 4610 7d3c cb66 57bd 335d 89bd
00000220: 1ae2 a83d 0b59 ee3c bc35 633d 9a0b f73d
00000230: f5fa 0bbe d82f 913d 2d21 3abd 52b2 4a3d
00000240: 7c2c 533d 6d2c 103e 2c03 2f3d b007 a0bd
00000250: ae0b 1f3e 40cf 82bb 5b05 1abd bde4 8abc
00000260: 68cb 27be 3c66 f2ba 2d11 0d3d ad90 a03d
00000270: 18ef b6bd 9fd1 1a3d e3a7 6ebc b338 a0bb
00000280: c88b 733d a0b9 c4bd 3141 013d ce2d 0f3e
00000290: 0cc3 09be 0fec 1d3d cbeb 85bd 4c85 9dbd
000002a0: d2f7 c63c 3490 36bd 6a49 503d ecf8 123e
000002b0: 4095 943d 33af 243d a939 76bd 2b7d e0bc
000002c0: 0b0d 2e3e 6b41 b03d 084d a03d c4a0 c1bd
000002d0: e1fd d43d 5bb1 10be 10c8 ea3d d2ea 1f3e
000002e0: 4ed4 b5bd d372 17be 1cdf 4abe 6cae b6bd
000002f0: d4be 983c b6cf 2ebe 7f03 0c3e a4e6 80bd
00000300: bc4f 9b3d 03a1 c63d 5f12 1abd d71b d33d
00000310: 22c1 e0bd ebe8 d0bd bcf6 1b3d 8227 abbc
00000320: 28c0 583e 5e86 03be 1e17 683e 6839 e23d
00000330: 842a f7bc 0d20 bd3d ad9d 803d db31 74bc
00000340: dbde e13d 666c 243d d722 743d 0708 97bd
00000350: 2cfb 233e 461f f93d 8581 303c fef3 f23d
00000360: 51a4 51bc b628 263d 0362 353e 6a93 7c3d
00000370: 0219 663e b104 39bc 5ccd 943d 591e 833d
00000380: 16ee a73d fc6b 81bc 93cf 423d 2d56 093e
00000390: ed4d d93d 1dcd 06be 4be1 223e 9775 2b3e
000003a0: b753 76bd db12 2d3e 2cf4 683e 3bb7 92bd
000003b0: 6409 283c 0c1d 2b3e d238 ebba 745b cabd
000003c0: 074c a4bd 36d8 273e 23bc 9f3d 572b 473c
000003d0: 016b be3c 739d b03d 287b f33d ae08 a73d
000003e0: 99c6 1fbe d1fe 263e 4895 f63d 170e f23d
000003f0: 1c62 a0bd 29af ab3d 1200 983d a615 183d
0.012250326 -0.13007954 0.080600694 0.069761954 0.0048231976 0.083990104 -0.10779193 0.060788013
0.033938345 0.038181793 -0.13648362 0.12194183 -0.03668326 -0.038083337 -0.07716499 0.012150276
0.110153094 0.10958338 -0.095227405 0.04444595 0.085310444 0.011037706 -0.03781172 -0.064868204
0.055525787 -0.084420234 -0.11850625 0.07769844 -0.038440935 -0.14305007 -0.001425914 0.0907112
0.1984515 -0.012019314 0.030990606 0.027428962 -0.02303892 -0.0064863293 -0.069792606 0.069595605
-0.06783179 -0.034018733 0.082807355 0.010066836 -0.10309597 -0.04605646 -0.11742512 -0.13657525
-0.090188734 -0.023716833 0.041356623 0.09523642 0.009168203 -0.11470946 0.12611003 -0.06599246
-0.03602736 0.05487139 0.03090097 0.06156689 0.015111012 0.04018656 -0.072332785 -0.08091015
0.045081005 0.17816566 0.056678433 0.20287089 0.00031937542 0.06410641 0.0069333 0.058419187
0.08080944 -0.016512632 0.25067562 0.10620202 0.06569621 -0.039521378 0.13134606 0.20764786
0.059373472 0.100907035 0.19444832 -0.03983509 0.18998618 0.12100362 -0.02250435 0.039574586
0.08163918 0.035331503 0.109856375 -0.04580109 0.06694235 0.13578884 -0.07108583 -0.06946457
-0.006947357 0.066605285 0.057317566 0.027302837 0.19709998 0.018829832 0.030258823 0.067633
-0.08869637 0.15534754 0.014641207 0.15446395 0.05489477 -0.005158342 0.02481137 0.046310462
-0.08821827 -0.04009492 -0.0335523 0.13635582 -0.035246845 0.073877245 0.02118311 0.06667321
0.108737946 0.12670378 -0.03051635 0.12256927 0.110409886 0.06479613 0.04163556 0.077627905
-0.08605764 -0.029017191 0.08496676 0.12310192 0.115463234 0.015445774 -0.052588265 -0.067072295
0.082462505 0.029095193 0.055471167 0.1206276 -0.13669951 0.070892036 -0.045441795 0.049486466
0.051556095 0.14079447 0.042727634 -0.07813966 0.15531799 -0.0039919913 -0.037602764 -0.016954774
-0.16386187 -0.0018493603 0.03444021 0.07840095 -0.08932322 0.037797567 -0.0145663945 -0.0048895716
0.059459478 -0.09605718 0.031556312 0.13982317 -0.1345331 0.0385552 -0.065391146 -0.0769144
0.024288092 -0.044571117 0.050851263 0.14352769 0.0725503 0.040206145 -0.060113583 -0.027403435
0.16997163 0.086062275 0.078271925 -0.09454492 0.10399986 -0.14130156 0.1146394 0.1561692
-0.088783845 -0.14789896 -0.19811672 -0.08919987 0.018645681 -0.17071423 0.13673209 -0.06293991
0.075835675 0.09698679 -0.037615176 0.103080444 -0.10974337 -0.102006756 0.0380771 -0.020892862
0.21167052 -0.12844226 0.22665069 0.110461056 -0.03017164 0.09234629 0.06280074 -0.014904465
0.110288344 0.04014244 0.05960354 -0.07374578 0.16013783 0.12164168 0.010773067 0.11862944
-0.012795524 0.04056617 0.1771317 0.061664023 0.22470477 -0.011292622 0.07265732 0.06402273
0.08199708 -0.015798561 0.04756124 0.1341178 0.10610566 -0.13164182 0.15906255 0.16744076
-0.06013843 0.16901724 0.22749394 -0.07163855 0.010256145 0.16710299 -0.0017946011 -0.098807245
-0.080223136 0.16391072 0.07799556 0.012156329 0.023244383 0.08623781 0.118887246 0.081559524
-0.15603103 0.16308142 0.12040192 0.11819094 -0.07831213 0.083830185 0.074218884 0.03713002

lstm.bias_hh_l0 f4 [256]
00000000: e456 dabd bd15 f3b7 5f99 7f3d ad17 763d
00000010: 818c 2abc f16a 833b 1c71 04be 84c5 073d
00000020: 75fb 13bd 170f 1b3e 52c3 b3bd f0c2 463d
00000030: 0a11 84bd d78a fc3c 16a8 773c 3de5 1d3d
00000040: c8ed b63b e685 ad3d 4761 73bc e703 a3bd
00000050: cec7 133e ec63 dfbc 60d4 c4bc 98bf 87bd
00000060: be0d 193e a98d 12bd a190 e5bb c795 cd3d
00000070: 9a46 c7bd 59e7 8cbc 142a a5bd 992f c4bd
00000080: fbcd 163e edd1 a73d a15c fdbd 20b4 b3bc
00000090: 919f 6ebd f2fc fabd 5c8f f33c 4091 393d
000000a0: 5e7b 193e 1810 013e 3ad7 343d 14c8 fb3d
000000b0: ddd4 8c3d 8f2e dc3d bf53 e5bc 9a27 3cbd
000000c0: e147 2bbd 69f4 a73a 7c90 263e 41b5 de3d
000000d0: c846 f8bd b5ec 8b3d 27e1 bbbc a4c4 a4bd
000000e0: 568e 983d 09ae 353d 7348 113d 87f6 303e
000000f0: 57a1 e9bc 048c f43d 6c81 fd3d c293 15be
00000100: a1e1 cd3d 08f0 213d 0054 9dba 95ce 5a3e
00000110: 7022 d13d 90e6 a6bd 2ffb 313e ec49 9bbd
00000120: bc12 063e cebf 02bd 427a d13d 8237 acbd
00000130: a69d d83d 9c95 20bc 4778 c5bd 67ef 0e3d
00000140: 0826 143e bcf9 253e c819 103e ce97 1f3e
00000150: dbc1 253d f767 623e 1164 a3bd ad94 87bd
00000160: 33f0 e83d af10 89bd 9252 843d de6e be3d
00000170: 8bc3 173e 2962 723e 1cc2 3e3d ba59 853c
00000180: c7e9 8fbd 3415 3d3d 06a1 813c 1dd4 083e
00000190: 5e9a b93b 9405 75bd 5c88 b53d b6d8 a83d
000001a0: 87fe 8dbd d9cf 2e3e b217 be3d 8294 273e
000001b0: 4c15 dcbd c5f1 233d 36e8 3d3d 7e30 003e
000001c0: aaca a6bd 762b 39bc 8f96 053d ca4a 7cbd
000001d0: a5eb 40bd 3e50 0a3d c635 133e bdb1 c7bd
000001e0: 50b2 a2bc b0fa a7bd 1bc6 c83d 656d 233e
000001f0: 1dfa 14bd 835d a93d 7834 b8bb c68f 8bbd
00000200: 4787 a6bd c981 8dbd a1f9 f03d 41c8 48bd
00000210: 5c75 073c cb92 4ebc 70df cebd 2ec2 053e
00000220: 6276 213e cb5f 26bd a76a 913d b90e 673d
00000230: 481f 07bc 72c5 13be fdd6 063d 7eb5 013e
00000240: e4c6 933d db12 0d3e 4cf4 e7bd b200 9abd
00000250: 92d3 cd3d 6a1c cd3c 8751 a0bd 3750 1bbd
00000260: de8e 1fbe a8eb 88bd a776 56bc 9c6a 053e
00000270: 3933 06be 32fc ad3d 7c85 ddbd bbe3 773d
00000280: ca11 e3bb 50c4 41bd cf6e ce3d 1c42 813d
00000290: 6c0a 103d 18b4 aebb f3bb b0bc 0e1a a13d
000002a0: de63 fbbd b093 193e 901c ebbc 6042 6b3d
000002b0: c77e 45bd 6f86 333d a721 a7bd 44b2 fe3d
000002c0: ed19 d5bc 829d 693c 74a0 053e 3a05 ddbc
000002d0: d383 91bd 9b1e 07bd f291 563d 721e 16bb
000002e0: 349b a6bd 99be 1fbe 5d41 1fbe 49c2 e1bc
000002f0: d0a0 03be 7efc 27be a35d 8f3d 0247 abbd
00000300: b699 ee3d bfd1 d03d b671 133e b721 de3d
00000310: 9b0c f33c 5dec d93d bd60 7e3d d655 103e
00000320: c303 d43d 4621 873d 3e6c a13d 7c55 d73d
00000330: 01fc b63c eeca e23d e8e4 123e ede0 e73d
00000340: 1d5f c13d 062e 423d 1f42 4a3e eba2 073d
00000350: e544 b53d d3bd 623e abfd 5abc ef91 883a
00000360: 5e1a 123e a202 593d 779b 9d3d e17a 003d
00000370: 8f10 be3d 9bce 9f3d c620 63bd c518 913d
00000380: d6e7 ff3d 5326 b7bd 60cf 3a3e 7a78 aa3c
00000390: bd87 043e d822 8d3d 9310 db3d 2d59 243e
000003a0: 9d48 00be 8cce 1e3d c5ad 2a3e 8265 39bc
000003b0: 9012 c5bd 272f 353d 3a75 4abd 5513 03ba
000003c0: 7311 90bd 7042 ec3d 4ff7 d33d cebf 84bd
000003d0: c865 55bd acb4 113d 8c54 ee3d 5c15 413e
000003e0: 90bd 403c cf2d af3d ef96 183d f0ad 663e
000003f0: 7036 a3bd 3851 133d 16f6 343d a172 0fbe
-0.10661104 -2.897798e-05 0.062402125 0.060081173 -0.010409475 0.004010551 -0.12933773 0.03314735
-0.03612848 0.15142475 -0.08777489 0.04852575 -0.064485624 0.030827923 0.015115758 0.038548697
0.005582545 0.08472805 -0.014854736 -0.07959729 0.14431688 -0.027269326 -0.02402705 -0.066283405
0.14946648 -0.03577963 -0.0070057665 0.100383334 -0.09730263 -0.017200159 -0.080646664 -0.09579391
0.14727013 0.08194337 -0.12371183 -0.021936476 -0.058257643 -0.12255277 0.029731445 0.045304537
0.14988467 0.12603796 0.04415057 0.12294021 0.06876538 0.10751068 -0.027994035 -0.045936204
-0.041816596 0.0012813929 0.16266054 0.10874415 -0.121228755 0.06832258 -0.02293451 -0.08045319
0.074490234 0.044355426 0.035469484 0.17281543 -0.028519316 0.11940768 0.12378201 -0.14607146
0.10052801 0.039535552 -0.0012003183 0.21367867 0.102116466 -0.08149445 0.17380975 -0.07582459
0.13093084 -0.0319212 0.10228397 -0.08409025 0.10576944 -0.009801295 -0.09642082 0.03489628
0.14467633 0.16208547 0.14072335 0.15585253 0.040468078 0.22109972 -0.079780705 -0.066201545
0.11373939 -0.06692635 0.064610615 0.0929849 0.14820687 0.23670258 0.046571836 0.016278137
-0.07027011 0.0461628 0.015823852 0.13362165 0.005664154 -0.059819773 0.08863899 0.08244459
-0.06933313 0.17071475 0.09281863 0.16365245 -0.107462496 0.04002549 0.04636403 0.12518498
-0.08144124 -0.011301866 0.032614287 -0.061594762 -0.047099728 0.03376793 0.14375982 -0.09750698
-0.019860417 -0.08202112 0.098034106 0.159597 -0.03637134 0.08269789 -0.005621489 -0.06814532
-0.08131271 -0.0690952 0.11766363 -0.049019102 0.008267727 -0.01260824 -0.10101211 0.13062355
0.15767816 -0.0406187 0.071004204 0.056410525 -0.008247204 -0.14430788 0.032919873 0.1266689
0.0721567 0.13776724 -0.11325893 -0.07519664 0.100501195 0.025037963 -0.0782805 -0.037918296
-0.15581843 -0.06685573 -0.013089812 0.1302895 -0.13105477 0.08495368 -0.10816476 0.060519915
-0.006929611 -0.04730636 0.10079729 0.063114375 0.03516619 -0.0053315274 -0.021573996 0.07866298
-0.122749075 0.14997745 -0.028700143 0.057436347 -0.048216607 0.043829378 -0.081607156 0.12436345
-0.026013339 0.014258744 0.1304949 -0.026980031 -0.071052216 -0.032988172 0.052385278 -0.002290633
-0.081350714 -0.15600051 -0.15552278 -0.027558463 -0.12854314 -0.16404912 0.07000282 -0.08363153
0.11650412 0.10196256 0.14398846 0.10846274 0.029669097 0.10640786 0.062103976 0.14095244
0.1035228 0.06598143 0.07881974 0.10514352 0.022336962 0.11073862 0.14345133 0.11322198
0.094419695 0.047407173 0.19751786 0.033114355 0.08851031 0.22142725 -0.013366143 0.0010419468
0.14267871 0.052981026 0.07695668 0.031367186 0.09280502 0.07803079 -0.055451177 0.070848025
0.12495391 -0.08942857 0.1824317 0.0208094 0.12942405 0.068914115 0.10696521 0.16049643
-0.125277 0.038771197 0.1666785 -0.011315705 -0.09622681 0.04423442 -0.049428202 -0.0005000134
-0.07034578 0.115361094 0.10349905 -0.06481896 -0.05209902 0.035572693 0.1163722 0.18855804
0.011763945 0.08553659 0.037253316 0.2252729 -0.079693675 0.035966128 0.04418 -0.14008571

fc.weight f4 [5, 64]
00000000: 26b3 f53e efb5 fbbd 9787 58bd 32bb d13e
00000010: 34c4 31bc 8a52 f03e 33e0 0fbf cfa3 ac3e
00000020: 06f1 a83d 7049 86be 350e 88bf 26ee fa3a
00000030: 50e7 0dbe 279c 05bf 8b42 2b3e e182 813e
00000040: 1fb9 a03e 82e1 703e 8eaa bcbe 4f9d 9abd
00000050: 8616 0d3e e200 f83e 5f13 91be 39cd 2d3f
00000060: c136 adbe 1499 71be 1be2 403e 4474 f23d
00000070: f5b4 4dbe b8c7 9d3e de56 603e 7c2b 8a3e
00000080: 0317 2e3e 7b8a a83d 3f61 63be ec83 233f
00000090: 84ee 7ebd e380 4f3d 1b53 03be cc98 0a3e
000000a0: ce2f 19be 1cf6 633d b78d 00bf 6822 6f3e
000000b0: bf1b e1bc daa2 673e af70 0a3e 2d5b ce3e
000000c0: 3185 7d3d 3463 c33d 8890 a73e 6f0a c8bd
000000d0: 5d08 5ebd 766b 81be fd19 173f 2df0 ae3e
000000e0: 0bdb eb3d fc47 c9bd be9a b0bd d98c a8be
000000f0: fdd0 be3d 247b 07bf 8a9b 643e 3fa9 fd3d
00000100: d1d5 dd3e 6b71 06bf 1392 a23d d3fc 0abf
00000110: 14eb 8f3c 0e27 23bb ec98 2ebe b2a4 b8bd
00000120: 19c1 f4ba 9238 033e 3f13 e7be d349 9a3d
00000130: 4ea4 3cbd 7897 98bd f52d 52bd 5fdc bebd
00000140: 030b 05be c0b7 edbd 44e6 b4be 2547 27be
00000150: da4e a3be 0933 ecbe b83a 193f 70f7 433e
00000160: b231 543f e8d7 08be 882c 2b3d a9b5 a8bd
00000170: a70b e4be eb9b 323e 3a5e 193e 0db8 0b3e
00000180: 98ff d93d 27c4 833e b1e3 8c3c 9dd2 00be
00000190: 703a a2bc 0132 883d d740 8ebe 1194 efbd
000001a0: 9f46 c4bd 4d87 93bf b3d1 5a3f fe34 22be
000001b0: 7251 b3bd 7e13 9c3d 5050 ce3e 08f4 bb3d
000001c0: a9d6 1a3e a2ce ce3e c084 e2bd 24f0 2fbe
000001d0: 5846 0e3e 68c1 3a3e 8b95 21be 9d3f 30be
000001e0: c79d be3e 00a8 0f3e e49c c2bd 77c7 7bbe
000001f0: 3174 95bd 4598 04bf 6645 5bbd 73c6 30be
00000200: 726c 8ebe 43e0 a73e 5ca4 be3c e8ed 4ebe
00000210: ac51 fd3d d985 1dbe 6bf6 963d 9791 75bd
00000220: 8fd7 23bc e4a4 463d 21c8 b23d 9e6c a6be
00000230: 80b7 fc3d 14c0 633e 117f 9dbd 7f99 fabd
00000240: 8eaa 8ebe 759e b5be 1c68 743e d6a7 db3e
00000250: 7d72 e63c b8cc d0be 205c 88be 4ef1 f8bd
00000260: 1d5b ee3d becb 0ebd bec0 563e 33e1 033d
00000270: 5950 afbe 3641 a23b 0288 8b3e e611 c8bd
00000280: 1741 debd 4cea 68be 2ae8 3f3e 715b c3bd
00000290: 205e 53bd e948 a1bd eae0 533e eea7 6d3d
000002a0: 0f80 58be 7de8 e53e 497f 913e ada6 8bbd
000002b0: bc46 6ebd 5cd7 a4be 302f 56be 792a 24bd
000002c0: 1f67 16be ce66 50be 507f 983d bfd2 ae3d
000002d0: f80f b7bd 071b 64bd 8912 80be 7a71 c8be
000002e0: 5b61 d1bc d396 553f ba53 a0bd 8291 c93e
000002f0: 6485 0f3c 331b 723d 93fa 9f3d 1e07 bc3d
00000300: 2e57 23be e600 0dbf 9ba7 b1bb f3f7 8f3e
00000310: a494 1bbe 316a 79bd d80a 0b3e 7481 463e
00000320: 93fe bbb9 d1ff ca3d 5800 b93e f5fc 003d
00000330: 0ac1 46be d6b5 bc3d 5485 4e3e b22a 84bd
00000340: 6db2 cc3d ab89 433e 8c17 42be ea99 91be
00000350: 1503 babd ccdf a7bb 5cb2 79bd 70ff dc3d
00000360: 083d 85be f2a7 bcbc b432 5f3e 654e 8dbc
00000370: da49 093e fef8 09be 5299 8ebc 46c3 bd3e
00000380: 5469 b73d 9dd2 3d3e 10c9 1cbe ca1f eabd
00000390: 8baf da3d d118 883c 9364 d6be b0ac 38be
000003a0: ed7e a43c 834c 0a3f 5229 03bf c834 fc3d
000003b0: efce 5d3e 0f26 423e dc78 db3d 3f8d 88bc
000003c0: e72c 3d3e b0bb a73e 29ce debe b349 dcbd
000003d0: a6c4 70bd 3299 26bd e07c 7bbe 1513 033f
000003e0: 6baf 3ebd 154a 26be f7ee aabd 3fc8 84be
000003f0: 9a4d 2dbe 170e 0d3f 8ec2 2cbe 3376 31be
0.47988242 -0.122905605 -0.052863684 0.4096313 -0.010850001 0.46937972 -0.56201476 0.33718726
0.082490966 -0.26227903 -1.0629336 0.001914446 -0.1385777 -0.52191395 0.16724603 0.25295165
0.31391236 0.23523524 -0.36848873 -0.075495355 0.13778123 0.48438174 -0.2833509 0.6789127
-0.33830836 -0.23593551 0.18836252 0.11838582 -0.20088561 0.30816436 0.21908137 0.269863
0.17000966 0.08229538 -0.22205065 0.6387317 -0.062239185 0.050660025 -0.12824671 0.1353485
-0.14959642 0.05565463 -0.5021624 0.23352969 -0.02747905 0.22620717 0.13519548 0.40303937
0.0618946 0.09540406 0.32727456 -0.09767615 -0.054207195 -0.252773 0.5902403 0.34167615
0.115163885 -0.09828183 -0.08623265 -0.32919958 0.09317205 -0.5292227 0.22324958 0.12385797
0.4332719 -0.5251681 0.07938018 -0.5429203 0.017568149 -0.0024895105 -0.17050523 -0.09015788
-0.001867327 0.12814549 -0.4513187 0.07533612 -0.04605513 -0.07450765 -0.05131336 -0.09319376
-0.12992482 -0.11607313 -0.3533193 -0.16335733 -0.31896096 -0.46132687 0.5985522 0.19137359
0.8288833 -0.13363612 0.041790515 -0.08237774 -0.4454014 0.1744229 0.14977351 0.13644429
0.10644454 0.2573559 0.017198415 -0.12580343 -0.019803256 0.066501625 -0.27783844 -0.11698163
-0.095837824 -1.1525666 0.85476226 -0.15840527 -0.08755769 0.07620905 0.4029565 0.09177405
0.15120949 0.40392023 -0.11060476 -0.1718145 0.13894022 0.18237841 -0.15779702 -0.17211767
0.3722975 0.1402893 -0.09502581 -0.24587809 -0.072975524 -0.51794845 -0.05353298 -0.17263202
-0.27817112 0.32788286 0.023271732 -0.20207942 0.12369093 -0.1538309 0.07371219 -0.0599533
-0.010000124 0.048497096 0.08729578 -0.32504743 0.12339687 0.2224124 -0.076902516 -0.12236308
-0.27864498 -0.35472456 0.2386784 0.42901486 0.028130764 -0.40781188 -0.26632786 -0.121554
0.11638472 -0.034862272 0.20971963 0.03219719 -0.34240988 0.0049516214 0.27252203 -0.09769039
-0.10852259 -0.22745627 0.18740907 -0.095389254 -0.051603436 -0.07875235 0.20691267 0.05802148
-0.211426 0.44903937 0.28417423 -0.068189 -0.058172926 -0.32195556 -0.20916438 -0.040079568
-0.14687775 -0.20351717 0.07446158 0.085362904 -0.08938593 -0.055689838 -0.2501414 -0.39149076
-0.025559118 0.83433264 -0.078284696 0.39368826 0.00875983 0.05910797 0.07811465 0.09181045
-0.15951225 -0.55079496 -0.0054215915 0.28118858 -0.1519342 -0.060892288 0.13578355 0.1938532
-0.00035857092 0.09912074 0.36133075 0.03149124 -0.19409576 0.0921437 0.20168048 -0.06453456
0.099949695 0.19095485 -0.18954295 -0.2843774 -0.09082619 -0.005123114 -0.060961112 0.10790908
-0.26023126 -0.023029301 0.21796685 -0.017249295 0.13407078 -0.13473889 -0.017407093 0.37063044
0.089556366 0.18537374 -0.15311074 -0.114318445 0.106780134 0.016613396 -0.41873607 -0.18034625
0.020080054 0.54023 -0.51234925 0.12314755 0.2166097 0.1895983 0.107164115 -0.016668914
0.1847416 0.32760382 -0.43516663 -0.107562445 -0.05878129 -0.040673442 -0.24559355 0.5120099
-0.04655401 -0.16239198 -0.0834636 -0.25934026 -0.16924134 0.55099624 -0.16871092 -0.17330246

fc.bias f4 [5]
00000000: 3c79 853c e5f9 bcbd afd7 a43b f3fe 47be
00000010: 465f 493e
0.01629316 -0.09227351 0.0050305943 -0.19530849 0.1966525
